tests/artifacts/policies/aloha_sim_insertion_human_act_/actions.safetensors (safetensors, 5104 bytes, 10 tensors)

0 f4 [8, 14]
0	0xbd1867a8	-0.03720823
1	0xbe11f280	-0.14252663
2	0x3f5afa5d	0.85538274
3	0xbd36b1f3	-0.0446033
4	0x3ef0e899	0.47052458
5	0xbd53c331	-0.05169982
6	0x3e87080a	0.2637332
7	0xbe0c6b4d	-0.13712807
8	0xbe30fe87	-0.17284594
9	0x3f6a0152	0.91408265
10	0xbd1f599c	-0.038903818
11	0x3ea97aa0	0.33101368
12	0x3d5b0c30	0.05347842
13	0x3dfafd48	0.12255341
14	0xbd2ed734	-0.042685702
15	0xbe0e3293	-0.1388648
16	0x3f5e7c1c	0.86908126
17	0xbd4662f5	-0.048434217
18	0x3ef520e6	0.47876662
19	0xbd429c7e	-0.047512524
20	0x3e88094c	0.26569593
21	0xbe10d1e3	-0.14142565
22	0xbe3e38bf	-0.18576334
23	0x3f6a03d6	0.91412103
24	0xbd377b38	-0.044795245
25	0x3eae3355	0.34023538
26	0x3d5bcf3c	0.05366443
27	0x3e06666e	0.13125011
28	0xbd245548	-0.040120393
29	0xbe135c76	-0.1439074
30	0x3f5ec422	0.87018025
31	0xbd44d36c	-0.04805319
32	0x3ef4b839	0.477968
33	0xbd513c49	-0.051082883
34	0x3e8c8ed2	0.27452713
35	0xbe129dbf	-0.14317988
36	0xbe4f53e3	-0.20246844
37	0x3f67c0d1	0.9052859
38	0xbd44d884	-0.048058048
39	0x3eb1d058	0.34729266
40	0x3d81d35a	0.0633914
41	0x3e05ec62	0.13078454
42	0xbd19115c	-0.03737007
43	0xbe135734	-0.14388734
44	0x3f6131ad	0.87966424
45	0xbd355c17	-0.044277277
46	0x3ef05e44	0.4694692
47	0xbd4f7442	-0.05064798
48	0x3e8c4d0d	0.27402535
49	0xbe157826	-0.14596614
50	0xbe4afe90	-0.1982367
51	0x3f6abf77	0.916984
52	0xbd4c8b54	-0.04993756
53	0x3eafb74a	0.34319526
54	0x3d598fe4	0.05311574
55	0x3deedf84	0.11663726
56	0xbd2268b2	-0.039650626
57	0xbe1c1313	-0.15241651
58	0x3f5e7ac0	0.8690605
59	0xbd3e924c	-0.04652624
60	0x3eeec757	0.4663646
61	0xbd3f68a5	-0.046730656
62	0x3e83e69b	0.25761876
63	0xbe1a8911	-0.15091349
64	0xbe3fc9d2	-0.18729332
65	0x3f6f3ab9	0.9344898
66	0xbd73bfc4	-0.059509054
67	0x3eb2ad8c	0.3489803
68	0x3d863020	0.06552148
69	0x3de1fba8	0.11034328
70	0xbd26e8fc	-0.040749535
71	0xbe1dd534	-0.15413362
72	0x3f5e6d3c	0.8688543
73	0xbd42cdaf	-0.047559436
74	0x3eee6d21	0.46567634
75	0xbd30f9b8	-0.0432069
76	0x3e83818e	0.2568478
77	0xbe1b3488	-0.15156758
78	0xbe3bbe1b	-0.18334238
79	0x3f6fa9e6	0.9361862
80	0xbd700b84	-0.058604732
81	0x3eaffdc9	0.3437331
82	0x3d8e013e	0.06933831
83	0x3de91568	0.11381036
84	0xbd34f468	-0.044178396
85	0xbe1ad66f	-0.15120862
86	0x3f5dfe41	0.86716086
87	0xbd45e3c3	-0.048312914
88	0x3eebfee8	0.46092916
89	0xbd42f4c2	-0.0475967
90	0x3e7b10ba	0.245181
91	0xbe181baf	-0.1485431
92	0xbe4140bd	-0.18872352
93	0x3f6e7cb4	0.9315903
94	0xbd49169c	-0.049093828
95	0x3ead35b8	0.33830047
96	0x3d7e8e84	0.062147632
97	0x3dfaa60c	0.12238702
98	0xbd3d212c	-0.046174213
99	0xbe1e3066	-0.1544815
100	0x3f5f745d	0.8728693
101	0xbd406432	-0.046970554
102	0x3eeb6cee	0.45981544
103	0xbd3da9ce	-0.046304516
104	0x3e7cf007	0.24700938
105	0xbe17d2fa	-0.14826575
106	0xbe3cc939	-0.18436135
107	0x3f6f0f34	0.93382573
108	0xbd519adc	-0.051173076
109	0x3eb1f3ef	0.3475642
110	0x3d7cef94	0.061751917
111	0x3dff617a	0.12469764

1 f4 [8, 14]
0	0xbd30d7d0	-0.043174565
1	0xbe190a55	-0.14945348
2	0x3f59f5ab	0.85140485
3	0xbd2e43ba	-0.042545058
4	0x3eed527b	0.4635199
5	0xbd56bdc6	-0.052427076
6	0x3e845230	0.25843954
7	0xbe0dad53	-0.13835649
8	0xbe2cee63	-0.16887812
9	0x3f6bd95c	0.9212854
10	0xbd102364	-0.03519
11	0x3ea7ca73	0.32771644
12	0x3d2c0e98	0.042006105
13	0x3dfffcb4	0.12499371
14	0xbd46a194	-0.048493937
15	0xbe13e3d4	-0.14442378
16	0x3f5d9b8f	0.8656549
17	0xbd3f6200	-0.04672432
18	0x3ef1aabe	0.47200578
19	0xbd455610	-0.04817778
20	0x3e858524	0.2607814
21	0xbe11b59a	-0.14229432
22	0xbe39872d	-0.18117972
23	0x3f6c21c7	0.9223904
24	0xbd2939e8	-0.04131499
25	0x3eac5137	0.33655712
26	0x3d313e80	0.043272495
27	0x3e090a90	0.13382936
28	0xbd39e72a	-0.04538647
29	0xbe18fb88	-0.14939702
30	0x3f5e502c	0.8684108
31	0xbd3efbe5	-0.046626944
32	0x3ef315ee	0.4747767
33	0xbd4fe96d	-0.05075972
34	0x3e8a6506	0.270302
35	0xbe15d018	-0.14630163
36	0xbe4940d4	-0.19653636
37	0x3f69b2c2	0.9128839
38	0xbd3f75e8	-0.046743304
39	0x3eafffb1	0.34374765
40	0x3d5d6d4c	0.05405931
41	0x3e09c7f0	0.13455176
42	0xbd2ede5c	-0.042692527
43	0xbe186104	-0.14880759
44	0x3f60ae23	0.8776571
45	0xbd2f97e3	-0.04286946
46	0x3eee5499	0.46548918
47	0xbd4e7c48	-0.050411493
48	0x3e8a01cb	0.26954493
49	0xbe1802df	-0.14844845
50	0xbe456072	-0.19275072
51	0x3f6cbe2b	0.92477673
52	0xbd4795c4	-0.048726812
53	0x3ead5992	0.338574
54	0x3d3052d8	0.043047756
55	0x3df4dcd8	0.11956185
56	0xbd39d9ce	-0.04537373
57	0xbe220e63	-0.158258
58	0x3f5dae1f	0.8659381
59	0xbd35af29	-0.0443565
60	0x3eec9212	0.46205193
61	0xbd3e1478	-0.04640624
62	0x3e816fcb	0.25280604
63	0xbe1bc284	-0.1521092
64	0xbe3a6498	-0.18202436
65	0x3f72098c	0.9454582
66	0xbd6a1f24	-0.057158604
67	0x3eb06c5a	0.34457666
68	0x3d67e4fc	0.05661486
69	0x3de9522c	0.11392626
70	0xbd3d0b86	-0.046153568
71	0xbe235c51	-0.15953185
72	0x3f5da5c8	0.8658109
73	0xbd38ccd0	-0.0451172
74	0x3eebcb64	0.46053612
75	0xbd303459	-0.043018673
76	0x3e8189af	0.25300357
77	0xbe1d1c00	-0.15342712
78	0xbe3563ca	-0.17713848
79	0x3f7231ed	0.9460743
80	0xbd68cb04	-0.056834236
81	0x3ead8b76	0.33895463
82	0x3d7a1998	0.061059564
83	0x3def78b6	0.11692946
84	0xbd4b8a6c	-0.049692556
85	0xbe20d81f	-0.15707444
86	0x3f5d6660	0.86484337
87	0xbd3edf53	-0.046599697
88	0x3ee9e602	0.45683295
89	0xbd3fc9dd	-0.04682337
90	0x3e763380	0.24043083
91	0xbe19bd16	-0.15013537
92	0xbe3a5f28	-0.18200362
93	0x3f70d274	0.94071126
94	0xbd3f37dc	-0.04668413
95	0x3eaacc84	0.33359158
96	0x3d5956ac	0.053061172
97	0x3e00fa91	0.12595583
98	0xbd53098e	-0.051522784
99	0xbe23d415	-0.15998872
100	0x3f5f10b6	0.87134874
101	0xbd3b1208	-0.045671493
102	0x3ee93c5e	0.4555387
103	0xbd39c6ef	-0.045355733
104	0x3e786e75	0.24260886
105	0xbe19a5b3	-0.15004615
106	0xbe35d36d	-0.17756434
107	0x3f71790e	0.9432534
108	0xbd49e76c	-0.049292967
109	0x3eaf9740	0.34295082
110	0x3d59bf68	0.053161055
111	0x3e02f664	0.12789303

2 f4 [8, 14]
0	0xbd0351ec	-0.03206055
1	0xbe0f697e	-0.14005086
2	0x3f5bf82e	0.8592557
3	0xbd3dd5b8	-0.046346396
4	0x3ee8ed91	0.4549375
5	0xbd620b6f	-0.055186685
6	0x3e87b450	0.26504755
7	0xbe0a2c3b	-0.13493435
8	0xbe317002	-0.17327884
9	0x3f69b1d2	0.9128696
10	0xbd203284	-0.039110675
11	0x3ead36a2	0.33830744
12	0x3d5efb1c	0.054438695
13	0x3ddad302	0.10684778
14	0xbd1abe02	-0.03777886
15	0xbe0b6c36	-0.13615498
16	0x3f5f1e22	0.87155354
17	0xbd4f498a	-0.05060724
18	0x3eedba5f	0.46431252
19	0xbd5192b5	-0.0511653
20	0x3e89353d	0.2679843
21	0xbe0e8512	-0.1391795
22	0xbe3c8a37	-0.184121
23	0x3f69cb3f	0.91325754
24	0xbd362270	-0.044466436
25	0x3eb25d70	0.34836912
26	0x3d63f198	0.055650324
27	0x3dec5328	0.11539298
28	0xbd117a34	-0.035516933
29	0xbe0ff557	-0.14058433
30	0x3f5f4131	0.8720885
31	0xbd4d60b3	-0.050141048
32	0x3eee6a9e	0.46565717
33	0xbd6274b8	-0.055287093
34	0x3e8ea892	0.27862984
35	0xbe116579	-0.14198865
36	0xbe4df3f9	-0.201126
37	0x3f6757d4	0.9036839
38	0xbd49238c	-0.049106166
39	0x3eb583c1	0.35452083
40	0x3d847c96	0.064690754
41	0x3dec5da8	0.11541301
42	0xbd06399e	-0.03276979
43	0xbe0f4d7c	-0.13994402
44	0x3f61d9ea	0.88223135
45	0xbd3ee2e2	-0.04660309
46	0x3ee9ff46	0.4570257
47	0xbd608ace	-0.054819874
48	0x3e8e42d3	0.27785358
49	0xbe137476	-0.14399895
50	0xbe497500	-0.19673538
51	0x3f6a60c0	0.9155388
52	0xbd4f6504	-0.050633445
53	0x3eb365e5	0.35038677
54	0x3d5f7b8c	0.054561183
55	0x3dd259ca	0.10271032
56	0xbd0d4c90	-0.034496844
57	0xbe19561a	-0.14974251
58	0x3f5f1992	0.8714839
59	0xbd487c8c	-0.048946902
60	0x3ee8b6b2	0.45451885
61	0xbd536276	-0.05160757
62	0x3e8501ca	0.25977927
63	0xbe17bbaa	-0.14817682
64	0xbe3eeea1	-0.18645717
65	0x3f6f871c	0.93565536
66	0xbd792ed4	-0.060835674
67	0x3eb6d509	0.35709408
68	0x3d851c7e	0.06499575
69	0x3dca8898	0.098893344
70	0xbd10daea	-0.035365023
71	0xbe1b574e	-0.15170023
72	0x3f5f3031	0.8718291
73	0xbd4dc107	-0.050232913
74	0x3ee7bf69	0.45263222
75	0xbd46cbd7	-0.04853424
76	0x3e848b49	0.25887516
77	0xbe188bae	-0.14897034
78	0xbe3b6718	-0.18301046
79	0x3f6ff75c	0.93736815
80	0xbd75a51c	-0.059971914
81	0x3eb4ca50	0.35310602
82	0x3d8df87a	0.06932159
83	0x3dd14d90	0.10219872
84	0xbd1f7bd0	-0.038936436
85	0xbe177609	-0.1479112
86	0x3f5ef148	0.87086916
87	0xbd517d1f	-0.051144715
88	0x3ee5e6fa	0.44902784
89	0xbd522179	-0.051301453
90	0x3e7c4440	0.2463541
91	0xbe1574f3	-0.14595394
92	0xbe3f788a	-0.18698326
93	0x3f6e9ba8	0.9320626
94	0xbd4e5894	-0.050377443
95	0x3eb1c30e	0.34719127
96	0x3d7f8f98	0.0623928
97	0x3de093c8	0.10965687
98	0xbd27bee2	-0.040953524
99	0xbe1b7658	-0.15181863
100	0x3f60619a	0.8764893
101	0xbd4ce2e1	-0.050021056
102	0x3ee56251	0.44801572
103	0xbd4cdcca	-0.05001525
104	0x3e7d5ea3	0.24743132
105	0xbe1525cd	-0.14565201
106	0xbe3a38e4	-0.18185765
107	0x3f6f2b7e	0.9342574
108	0xbd567304	-0.05235578
109	0x3eb6af0a	0.3568042
110	0x3d7dd0bc	0.061966643
111	0x3de3f938	0.11131519

3 f4 [8, 14]
0	0xbd0cf46e	-0.034412794
1	0xbe0c7b83	-0.13718991
2	0x3f5b82d0	0.8574648
3	0xbd437273	-0.04771657
4	0x3eee758c	0.46574056
5	0xbd48caed	-0.04902165
6	0x3e860842	0.26178175
7	0xbe09cdd0	-0.13457417
8	0xbe30346a	-0.17207494
9	0x3f69dc1b	0.9135148
10	0xbd167dfc	-0.03674124
11	0x3eab348a	0.33438522
12	0x3d692edc	0.056929454
13	0x3de146a0	0.10999799
14	0xbd23cc7a	-0.039989926
15	0xbe090fee	-0.13384983
16	0x3f5f0d98	0.8713012
17	0xbd5490fc	-0.05189608
18	0x3ef25b3d	0.47335234
19	0xbd374a99	-0.044748876
20	0x3e87652f	0.26444384
21	0xbe0e31ff	-0.1388626
22	0xbe3bc816	-0.18338045
23	0x3f69b94f	0.91298383
24	0xbd2b9de0	-0.04189861
25	0x3eafb02b	0.34314093
26	0x3d6ecb60	0.058299422
27	0x3df2735c	0.11838409
28	0xbd19fc54	-0.037594154
29	0xbe0e55e3	-0.1389995
30	0x3f5ee57a	0.87068903
31	0xbd524e56	-0.05134424
32	0x3ef2bdfb	0.4741057
33	0xbd456e97	-0.04820117
34	0x3e8c4a64	0.27400506
35	0xbe103e6f	-0.14086317
36	0xbe4d54c9	-0.20051874
37	0x3f67bc58	0.90521765
38	0xbd3ad8c8	-0.045616895
39	0x3eb38e7c	0.35069644
40	0x3d881438	0.066444814
41	0x3dee65b0	0.11640489
42	0xbd103b64	-0.03521289
43	0xbe0d45de	-0.13796183
44	0x3f6196a7	0.881205
45	0xbd4351bf	-0.04768538
46	0x3eede538	0.46463943
47	0xbd4372a3	-0.047716748
48	0x3e8c2e2d	0.2737898
49	0xbe12f211	-0.14350154
50	0xbe479a5a	-0.19492474
51	0x3f6ab49a	0.91681826
52	0xbd42cf0c	-0.047560737
53	0x3eb1a149	0.34693363
54	0x3d65aa50	0.056070626
55	0x3dd111f2	0.10208501
56	0xbd1aa856	-0.037758194
57	0xbe16e8c2	-0.14737228
58	0x3f5ef60f	0.87094206
59	0xbd4df9a6	-0.05028691
60	0x3eed5a5e	0.46358007
61	0xbd33604b	-0.043793004
62	0x3e8380c2	0.25684172
63	0xbe17a92e	-0.1481063
64	0xbe3cb301	-0.1842766
65	0x3f6f867c	0.9356458
66	0xbd6c3bec	-0.057674333
67	0x3eb3bdd4	0.35105765
68	0x3d8a7f6a	0.067625836
69	0x3dcc2412	0.09967817
70	0xbd1d6cf2	-0.038433976
71	0xbe18ea3e	-0.14933106
72	0x3f5f2522	0.87166035
73	0xbd551129	-0.05201832
74	0x3eec8958	0.46198535
75	0xbd2637b9	-0.040580485
76	0x3e8332e5	0.25624767
77	0xbe18f25a	-0.149362
78	0xbe38cfa0	-0.18047953
79	0x3f6fdb9a	0.9369446
80	0xbd6b4524	-0.057438985
81	0x3eb12e69	0.3460572
82	0x3d929316	0.07156961
83	0x3dd4075a	0.10352965
84	0xbd2c8a62	-0.04212416
85	0xbe158d97	-0.14604793
86	0x3f5ed2bb	0.870403
87	0xbd589b93	-0.052882742
88	0x3eea9c68	0.45822453
89	0xbd34492f	-0.044015106
90	0x3e798239	0.24366082
91	0xbe154d78	-0.14580333
92	0xbe3cb41d	-0.18428083
93	0x3f6ea15b	0.9321496
94	0xbd44ec60	-0.048076987
95	0x3eaec946	0.34137934
96	0x3d8619a2	0.06547858
97	0x3de2b3d0	0.11069453
98	0xbd33b39a	-0.043872453
99	0xbe190008	-0.14941418
100	0x3f606cc6	0.87665975
101	0xbd547361	-0.051867846
102	0x3ee9fc29	0.45700195
103	0xbd2e8713	-0.042609286
104	0x3e7ba1f9	0.24573506
105	0xbe1522d2	-0.14564064
106	0xbe37cc65	-0.17949064
107	0x3f6f5698	0.93491507
108	0xbd4d1f0c	-0.050078437
109	0x3eb352ca	0.350241
110	0x3d855978	0.065112054
111	0x3de67e0c	0.1125451

4 f4 [8, 14]
0	0xbd2d1494	-0.042255953
1	0xbe1027ac	-0.14077634
2	0x3f596ab0	0.8492842
3	0xbd36f5aa	-0.044667877
4	0x3eedbbbf	0.464323
5	0xbd49f94b	-0.04931001
6	0x3e84c7ba	0.2593363
7	0xbe03c785	-0.1286908
8	0xbe31ad70	-0.17351317
9	0x3f6c878c	0.9239433
10	0xbcda9128	-0.026680544
11	0x3eaa2fb0	0.33239508
12	0x3d543984	0.051812664
13	0x3de9c128	0.11413795
14	0xbd43475a	-0.047675468
15	0xbe0bb863	-0.13644557
16	0x3f5d0836	0.86340654
17	0xbd46bc5e	-0.048519485
18	0x3ef1ebb0	0.47250128
19	0xbd37327c	-0.04472588
20	0x3e8617ff	0.26190183
21	0xbe086b9d	-0.13322301
22	0xbe3d5032	-0.18487623
23	0x3f6cde04	0.9252627
24	0xbd060530	-0.03271979
25	0x3ead8f1a	0.3389824
26	0x3d573fe0	0.05255115
27	0x3dfaa24c	0.12237987
28	0xbd35296c	-0.044228956
29	0xbe11be1b	-0.14232676
30	0x3f5d37c6	0.8641323
31	0xbd45228a	-0.048128642
32	0x3ef25852	0.47333008
33	0xbd42b86a	-0.047539152
34	0x3e8baa30	0.2727828
35	0xbe0c0a9e	-0.13675925
36	0xbe4f82b4	-0.20264703
37	0x3f6a297a	0.9146954
38	0xbd1d5870	-0.03841442
39	0x3eb2a827	0.34893915
40	0x3d802676	0.06257336
41	0x3df97326	0.12180166
42	0xbd2b08ea	-0.041756548
43	0xbe11aff8	-0.14227283
44	0x3f5fb5bd	0.87386686
45	0xbd380a03	-0.044931423
46	0x3eedd798	0.46453547
47	0xbd430120	-0.047608495
48	0x3e8b5b52	0.2721811
49	0xbe0e7e89	-0.13915457
50	0xbe4bc3a5	-0.19898851
51	0x3f6d55c0	0.9270897
52	0xbd22e1f8	-0.03976628
53	0x3eafd02e	0.34338516
54	0x3d525d38	0.05135843
55	0x3dde3e36	0.108517095
56	0xbd3456fe	-0.044028275
57	0xbe1a2e36	-0.1505669
58	0x3f5ce4da	0.862867
59	0xbd3f7980	-0.04674673
60	0x3eebd617	0.46061775
61	0xbd348d3c	-0.044080004
62	0x3e829842	0.25506788
63	0xbe12eabe	-0.1434736
64	0xbe402da7	-0.18767415
65	0x3f726822	0.94690144
66	0xbd476354	-0.04867871
67	0x3eb29379	0.34878138
68	0x3d8345a6	0.06409769
69	0x3dd3ed0a	0.10347946
70	0xbd3851f4	-0.04500003
71	0xbe1bcc15	-0.1521457
72	0x3f5d018c	0.86330485
73	0xbd439c75	-0.04775663
74	0x3eeb00a4	0.45898926
75	0xbd26c60d	-0.04071622
76	0x3e8235b9	0.25431612
77	0xbe143dbc	-0.14476675
78	0xbe3a5fd4	-0.18200618
79	0x3f72f4ef	0.9490499
80	0xbd45df68	-0.04830876
81	0x3eb00573	0.34379157
82	0x3d8c222a	0.06842454
83	0x3ddac3a4	0.10681847
84	0xbd4649be	-0.04841017
85	0xbe17e516	-0.14833483
86	0x3f5cf98a	0.86318266
87	0xbd49425a	-0.049135543
88	0x3ee991f6	0.45619172
89	0xbd369a04	-0.044580474
90	0x3e781de2	0.2423015
91	0xbe107c24	-0.14109856
92	0xbe3eff2f	-0.18652032
93	0x3f71e4fe	0.9449004
94	0xbd17d504	-0.037068382
95	0x3ead8748	0.33892274
96	0x3d7e56cc	0.062094495
97	0x3de94766	0.11390571
98	0xbd4d247e	-0.05008363
99	0xbe1ae07f	-0.15124701
100	0x3f5e9354	0.86943555
101	0xbd45fabf	-0.048334833
102	0x3ee90024	0.4550792
103	0xbd30669e	-0.043066613
104	0x3e7a0f36	0.24419865
105	0xbe106b71	-0.14103486
106	0xbe3a7904	-0.18210226
107	0x3f725f7f	0.94676965
108	0xbd227bf4	-0.039668992
109	0x3eb23246	0.3480398
110	0x3d7d22ec	0.061800882
111	0x3deeacb6	0.11654036

5 f4 [8, 14]
0	0xbd1bb458	-0.038013786
1	0xbe0960d6	-0.13415846
2	0x3f5ac10f	0.85450834
3	0xbd2c2771	-0.0420298
4	0x3eed77dd	0.4638051
5	0xbd4f935a	-0.050677635
6	0x3e8a6bb9	0.2703531
7	0xbe0c96a1	-0.13729335
8	0xbe29005e	-0.16504046
9	0x3f6ada9c	0.9173982
10	0xbd201d48	-0.039090425
11	0x3ea8b1c3	0.3294812
12	0x3d5d65c4	0.05405213
13	0x3ddc7134	0.10763779
14	0xbd328ef0	-0.043593347
15	0xbe061c94	-0.13096839
16	0x3f5e50cd	0.8684204
17	0xbd3d55d7	-0.04622444
18	0x3ef17c40	0.47165108
19	0xbd3e5d93	-0.046475958
20	0x3e8bb2b6	0.27284783
21	0xbe111ea9	-0.14171852
22	0xbe369347	-0.1782962
23	0x3f6ab526	0.9168266
24	0xbd369c84	-0.04458286
25	0x3eacbf7b	0.33739838
26	0x3d5f8a5c	0.05457531
27	0x3df20df8	0.118190706
28	0xbd27c6c0	-0.040961027
29	0xbe0a8036	-0.13525471
30	0x3f5e5a78	0.86856794
31	0xbd3c8c2e	-0.046032123
32	0x3ef1a84e	0.4719872
33	0xbd4d111e	-0.050065152
34	0x3e902998	0.28156734
35	0xbe136d7a	-0.1439723
36	0xbe484dc4	-0.19560915
37	0x3f68353b	0.90706223
38	0xbd45693c	-0.048196062
39	0x3eb0f8d6	0.34564847
40	0x3d83aad6	0.06429069
41	0x3debbb98	0.1151039
42	0xbd1c7450	-0.03819686
43	0xbe0a2f14	-0.13494521
44	0x3f60e6a3	0.87851924
45	0xbd2cff4a	-0.04223565
46	0x3eec9b29	0.46212128
47	0xbd4efcce	-0.050534062
48	0x3e8f9f4c	0.2805122
49	0xbe16103e	-0.14654633
50	0xbe445d49	-0.1917621
51	0x3f6b40c8	0.91895723
52	0xbd4a2acc	-0.04935722
53	0x3eaf43ee	0.34231514
54	0x3d5a4848	0.05329159
55	0x3dced3c8	0.10098988
56	0xbd24e99c	-0.04026185
57	0xbe1286b2	-0.14309195
58	0x3f5e6ffe	0.86889637
59	0xbd389790	-0.045066416
60	0x3eeb8be3	0.46005163
61	0xbd39f6a9	-0.04540125
62	0x3e8741a3	0.26417264
63	0xbe1a47de	-0.15066478
64	0xbe37785a	-0.17917004
65	0x3f70360f	0.93832487
66	0xbd72064c	-0.059088036
67	0x3eb14a88	0.34627175
68	0x3d868d9c	0.065699786
69	0x3dc5d2f8	0.0965938
70	0xbd290dd6	-0.04127296
71	0xbe140545	-0.14455135
72	0x3f5e605e	0.86865795
73	0xbd3c56dc	-0.045981273
74	0x3eeae3e2	0.45876986
75	0xbd2b9dd8	-0.04189858
76	0x3e86f47a	0.26358396
77	0xbe1b62ac	-0.15174359
78	0xbe32c6a1	-0.17458583
79	0x3f708ab4	0.93961644
80	0xbd6e55e4	-0.05818738
81	0x3eaf331e	0.34218687
82	0x3d90c0e6	0.070680425
83	0x3dcda594	0.10041347
84	0xbd38e452	-0.04513962
85	0xbe11ff20	-0.14257479
86	0x3f5def0a	0.8669287
87	0xbd4121b2	-0.047151275
88	0x3ee8cfac	0.4547094
89	0xbd3c6be1	-0.04600132
90	0x3e80732b	0.25087866
91	0xbe1779f7	-0.1479262
92	0xbe382ff6	-0.17987046
93	0x3f6f85f0	0.9356375
94	0xbd47b98c	-0.048760936
95	0x3eac282a	0.33624393
96	0x3d823396	0.063574955
97	0x3ddf97a6	0.109175965
98	0xbd3fcf8e	-0.0468288
99	0xbe14f164	-0.14545208
100	0x3f5f86ae	0.8731488
101	0xbd3cf97d	-0.046136368
102	0x3ee8377b	0.45354828
103	0xbd35f4a6	-0.044422768
104	0x3e816eca	0.25279838
105	0xbe1722cf	-0.14759372
106	0xbe33c23d	-0.17554565
107	0x3f7013e9	0.9378038
108	0xbd50397c	-0.05083607
109	0x3eb0d355	0.34536234
110	0x3d8223f6	0.06354515
111	0x3de48ed8	0.11160058

6 f4 [8, 14]
0	0xbd2109c4	-0.039315954
1	0xbe0f2319	-0.13978232
2	0x3f5a6cc8	0.85322237
3	0xbd2e989a	-0.042626
4	0x3eeafa80	0.4589424
5	0xbd536d06	-0.051617645
6	0x3e85e10c	0.2614826
7	0xbe0c6cef	-0.1371343
8	0xbe2ce4f4	-0.16884214
9	0x3f6caaa8	0.924479
10	0xbd1cf0b4	-0.03831549
11	0x3ea9743a	0.33096486
12	0x3d2eeab0	0.042704284
13	0x3de4a5e0	0.11164451
14	0xbd39f272	-0.04539723
15	0xbe0b5ab3	-0.13608818
16	0x3f5d89b4	0.86538243
17	0xbd3fb661	-0.04680479
18	0x3eef6473	0.46756324
19	0xbd3edaa5	-0.046595234
20	0x3e871625	0.26384082
21	0xbe10613e	-0.14099595
22	0xbe3983b5	-0.18116648
23	0x3f6cf9ac	0.9256847
24	0xbd305c38	-0.043056697
25	0x3ead9509	0.33902767
26	0x3d35f434	0.044422343
27	0x3dfb38cc	0.122666925
28	0xbd30dd9c	-0.043180093
29	0xbe122d93	-0.14275198
30	0x3f5e15b7	0.86751884
31	0xbd3fb9a1	-0.04680789
32	0x3ef0aca8	0.47006726
33	0xbd499d0c	-0.049222037
34	0x3e8c2448	0.2737143
35	0xbe12d659	-0.1433958
36	0xbe4ac53c	-0.19801801
37	0x3f6aa9f5	0.91665584
38	0xbd4080a4	-0.04699768
39	0x3eb0da57	0.3454158
40	0x3d5bd124	0.05366625
41	0x3df498ee	0.119432315
42	0xbd26fd72	-0.040769048
43	0xbe11f6a3	-0.1425424
44	0x3f60909b	0.8772065
45	0xbd2e6424	-0.04257597
46	0x3eebbe5d	0.46043673
47	0xbd49597b	-0.0491576
48	0x3e8c2a23	0.27375898
49	0xbe15c4dd	-0.14625879
50	0xbe4508b6	-0.19241604
51	0x3f6db653	0.9285633
52	0xbd494a74	-0.04914327
53	0x3eaebd7e	0.34128946
54	0x3d3099d4	0.043115452
55	0x3dd9ac5a	0.106285766
56	0xbd2e3d2e	-0.042538814
57	0xbe19642a	-0.14979616
58	0x3f5d9898	0.86560965
59	0xbd395a9c	-0.045252427
60	0x3ee9e081	0.45679095
61	0xbd3ba478	-0.045811146
62	0x3e830c4f	0.25595328
63	0xbe1a1690	-0.1504767
64	0xbe39a140	-0.18127918
65	0x3f7292ac	0.94755054
66	0xbd7212f4	-0.059100106
67	0x3eb375b5	0.3505074
68	0x3d682314	0.056674078
69	0x3dcc4b7a	0.099753335
70	0xbd3321ee	-0.04373353
71	0xbe1ae014	-0.15124542
72	0x3f5d9b6f	0.865653
73	0xbd3eb6fb	-0.046561223
74	0x3ee9938a	0.45620376
75	0xbd2ea814	-0.04264076
76	0x3e82ab02	0.25521094
77	0xbe1ac69b	-0.15114824
78	0xbe34a687	-0.1764165
79	0x3f7307d6	0.9493383
80	0xbd6e330c	-0.05815415
81	0x3eb106f8	0.3457563
82	0x3d76f330	0.060290515
83	0x3dd35878	0.103196084
84	0xbd4101e8	-0.04712096
85	0xbe184872	-0.14871386
86	0x3f5d8e7d	0.86545545
87	0xbd42d58a	-0.047566928
88	0x3ee7efe3	0.45300207
89	0xbd3d32cb	-0.046191018
90	0x3e77991d	0.24179502
91	0xbe17a16b	-0.1480767
92	0xbe398a6a	-0.18119207
93	0x3f7173ae	0.9431714
94	0xbd4961ac	-0.049165413
95	0x3ead97ec	0.3390497
96	0x3d58c7c4	0.052924886
97	0x3de2dc9e	0.11077236
98	0xbd484994	-0.048898295
99	0xbe1b9498	-0.15193403
100	0x3f5f26ca	0.8716856
101	0xbd3d941d	-0.04628383
102	0x3ee7595e	0.4518537
103	0xbd34bcbf	-0.044125315
104	0x3e79d7cd	0.24398728
105	0xbe17be85	-0.14818771
106	0xbe34913a	-0.17633525
107	0x3f7238e1	0.9461804
108	0xbd50fcec	-0.051022455
109	0x3eb24b5a	0.34823114
110	0x3d58734c	0.05284433
111	0x3de6a47a	0.1126184

7 f4 [8, 14]
0	0xbd2dec2c	-0.04246156
1	0xbe11579f	-0.14193581
2	0x3f59bf04	0.8505709
3	0xbd3be4f7	-0.045872655
4	0x3ef020f4	0.4690014
5	0xbd43bd71	-0.047788087
6	0x3e86ec4e	0.2635216
7	0xbe060254	-0.13086826
8	0xbe2fc942	-0.17166618
9	0x3f6c90f8	0.92408705
10	0xbce6d848	-0.028179303
11	0x3ea48eda	0.32140237
12	0x3d50e930	0.051003635
13	0x3de96282	0.11395742
14	0xbd43f3cc	-0.047839925
15	0xbe0cd749	-0.13754
16	0x3f5d1cd2	0.863721
17	0xbd4c3c7e	-0.049862377
18	0x3ef46dd5	0.47740045
19	0xbd319346	-0.04335334
20	0x3e87fda1	0.2656069
21	0xbe0a55dd	-0.13509317
22	0xbe3b69d2	-0.18302086
23	0x3f6cd5bc	0.9251363
24	0xbd0ca894	-0.034340456
25	0x3ea8ba9c	0.32954872
26	0x3d564904	0.052315727
27	0x3dfc3850	0.12315428
28	0xbd353878	-0.044243306
29	0xbe0fdd88	-0.14049351
30	0x3f5d0c83	0.86347216
31	0xbd4a9354	-0.04945691
32	0x3ef34dba	0.47520238
33	0xbd418df7	-0.04725453
34	0x3e8c9292	0.27455574
35	0xbe0dc848	-0.13845932
36	0xbe4cca0f	-0.19998954
37	0x3f69a3e0	0.9126568
38	0xbd23af5c	-0.039962158
39	0x3ead0d77	0.33799335
40	0x3d80f652	0.06296982
41	0x3e0027d4	0.12515193
42	0xbd2b5ba0	-0.041835427
43	0xbe0fcd72	-0.14043215
44	0x3f5fb746	0.8738903
45	0xbd3fdf5c	-0.04684387
46	0x3eeea384	0.46609128
47	0xbd407d11	-0.046994273
48	0x3e8c4a27	0.27400324
49	0xbe103238	-0.14081657
50	0xbe4a0902	-0.19729999
51	0x3f6d3629	0.92660767
52	0xbd2a2844	-0.041542307
53	0x3eaa6dfe	0.33287042
54	0x3d51d5b0	0.05122918
55	0x3de24e9a	0.11050148
56	0xbd32df0e	-0.043669753
57	0xbe189c40	-0.14903355
58	0x3f5cdda0	0.8627567
59	0xbd441d60	-0.047879577
60	0x3eed368a	0.46330673
61	0xbd33784e	-0.043815903
62	0x3e8453c9	0.25845173
63	0xbe139db3	-0.14415626
64	0xbe3ccc6c	-0.18437356
65	0x3f71f0b2	0.94507897
66	0xbd4e6444	-0.05038859
67	0x3eada971	0.33918336
68	0x3d832668	0.0640381
69	0x3dd6071c	0.10450575
70	0xbd36fb06	-0.04467299
71	0xbe1a8c56	-0.15092596
72	0x3f5d0fda	0.8635231
73	0xbd4a68a5	-0.049416203
74	0x3eecbf46	0.4623968
75	0xbd2683f2	-0.040653177
76	0x3e83fdb9	0.25779513
77	0xbe14f0ee	-0.14545032
78	0xbe382c6e	-0.17985699
79	0x3f72a04c	0.94775844
80	0xbd4ab4c4	-0.049488798
81	0x3eab079d	0.33404246
82	0x3d8a4bf2	0.06752767
83	0x3ddab2cc	0.10678634
84	0xbd44cebc	-0.04804872
85	0xbe15d1c2	-0.14630798
86	0x3f5cce63	0.8625242
87	0xbd50290c	-0.050820395
88	0x3eeb246c	0.45926225
89	0xbd347174	-0.04405351
90	0x3e7c32fa	0.24628821
91	0xbe11369c	-0.14180988
92	0xbe3b6dea	-0.18303648
93	0x3f716684	0.9429705
94	0xbd22ee70	-0.039778173
95	0x3ea801aa	0.3281377
96	0x3d79588c	0.06087546
97	0x3de6e588	0.11274248
98	0xbd4a4fdc	-0.049392566
99	0xbe18f116	-0.14935717
100	0x3f5e6cb0	0.86884594
101	0xbd4c235e	-0.049838416
102	0x3eea60eb	0.45777068
103	0xbd2e32dd	-0.042528976
104	0x3e7e1ad8	0.24814928
105	0xbe111739	-0.14169015
106	0xbe365030	-0.17804027
107	0x3f71d918	0.94471884
108	0xbd2d2ea0	-0.042280793
109	0x3eacd83c	0.33758724
110	0x3d784780	0.060615063
111	0x3dec3f6a	0.11535533

8 f4 [8, 14]
0	0xbd055530	-0.032551944
1	0xbe098295	-0.1342872
2	0x3f5bdc47	0.8588299
3	0xbd3f8a25	-0.046762604
4	0x3eede23c	0.46461666
5	0xbd529c16	-0.051418386
6	0x3e87fb43	0.26558885
7	0xbe0c3630	-0.13692546
8	0xbe32810e	-0.17432043
9	0x3f69e1c6	0.9136013
10	0xbd25fc40	-0.040523767
11	0x3ea85672	0.32878453
12	0x3d4c2da4	0.049848214
13	0x3dd2873a	0.10279699
14	0xbd1dc100	-0.038514137
15	0xbe07236e	-0.13197109
16	0x3f5f274a	0.87169325
17	0xbd4fe162	-0.05075205
18	0x3ef22fc1	0.47302058
19	0xbd404aa2	-0.046946175
20	0x3e8960c9	0.26831654
21	0xbe1087a8	-0.14114249
22	0xbe3f47d7	-0.18679748
23	0x3f6a1d0e	0.91450584
24	0xbd3b83a0	-0.045779824
25	0x3eacd300	0.3375473
26	0x3d5063e8	0.050876528
27	0x3de51be4	0.1118696
28	0xbd13335a	-0.035937645
29	0xbe0af05c	-0.13568252
30	0x3f5eefa8	0.87084436
31	0xbd504f86	-0.05085709
32	0x3ef1ee0d	0.4725193
33	0xbd524117	-0.051331606
34	0x3e8e5fdc	0.2780751
35	0xbe11e95b	-0.14249174
36	0xbe519a0f	-0.20468925
37	0x3f67c8a0	0.90540504
38	0xbd491604	-0.04909326
39	0x3eb0e98f	0.3455319
40	0x3d7b8af8	0.061411828
41	0x3de14ea2	0.11001326
42	0xbd0a879a	-0.033820726
43	0xbe0abd92	-0.13548878
44	0x3f61a180	0.88137054
45	0xbd414339	-0.04718325
46	0x3eecea69	0.4627259
47	0xbd520026	-0.051269673
48	0x3e8d9db0	0.2765937
49	0xbe15261e	-0.14565322
50	0xbe4e1ac0	-0.20127392
51	0x3f6b131c	0.91826034
52	0xbd50e62c	-0.05100076
53	0x3eaed09a	0.34143525
54	0x3d4fa124	0.050690785
55	0x3dc516c6	0.09623484
56	0xbd13da98	-0.03609714
57	0xbe12e89a	-0.14346543
58	0x3f5ef027	0.87085193
59	0xbd4d0b4f	-0.050059613
60	0x3eeb561f	0.45964143
61	0xbd415476	-0.04719969
62	0x3e84e410	0.25955248
63	0xbe1a2dd6	-0.15056548
64	0xbe40b3ed	-0.18818636
65	0x3f6fac14	0.93621945
66	0xbd7c204c	-0.06155424
67	0x3eb0c4cc	0.34525144
68	0x3d784680	0.06061411
69	0x3dba75a4	0.091044694
70	0xbd17d39c	-0.03706704
71	0xbe14cdb9	-0.14531602
72	0x3f5ef1a1	0.87087446
73	0xbd50de74	-0.050993398
74	0x3eeaabf0	0.45834303
75	0xbd32da81	-0.043665413
76	0x3e84bd02	0.25925452
77	0xbe1b2c5d	-0.15153642
78	0xbe3cb905	-0.18429954
79	0x3f701f04	0.93797326
80	0xbd77d674	-0.060507253
81	0x3eae9dc3	0.34104738
82	0x3d84a54c	0.064768404
83	0x3dc03dd0	0.0938679
84	0xbd25481c	-0.040351972
85	0xbe129fab	-0.14318721
86	0x3f5ecbd6	0.8702978
87	0xbd57628a	-0.05258421
88	0x3ee965e1	0.4558554
89	0xbd403dd8	-0.04693398
90	0x3e7c300c	0.24627703
91	0xbe16cedc	-0.14727348
92	0xbe40d572	-0.18831423
93	0x3f6efb48	0.93352175
94	0xbd51b01c	-0.05119334
95	0x3eab7739	0.33489397
96	0x3d6c8d0c	0.0577517
97	0x3dd1b752	0.10240044
98	0xbd2c4552	-0.042058297
99	0xbe160dfb	-0.1465377
100	0x3f60521c	0.8762529
101	0xbd530771	-0.05152077
102	0x3ee8dd14	0.4548117
103	0xbd39ef36	-0.045394145
104	0x3e7e373e	0.2482576
105	0xbe16a22b	-0.147103
106	0xbe3c2197	-0.18372189
107	0x3f6f950f	0.9358682
108	0xbd58afec	-0.052902147
109	0x3eb01c40	0.34396553
110	0x3d6b9c64	0.057522193
111	0x3dd43b76	0.10362904

9 f4 [8, 14]
0	0xbd1bdd9c	-0.03805314
1	0xbe0cb62e	-0.13741371
2	0x3f5aac91	0.85419565
3	0xbd34c36f	-0.044131692
4	0x3eed32b9	0.4632776
5	0xbd402aff	-0.046916004
6	0x3e872519	0.2639549
7	0xbe077a00	-0.13230133
8	0xbe2cc67e	-0.16872594
9	0x3f6c3ee0	0.9228344
10	0xbd07a108	-0.033112556
11	0x3ea5fa5a	0.32417566
12	0x3d47d418	0.048786253
13	0x3dd02b80	0.10164547
14	0xbd328a80	-0.043589115
15	0xbe0970e5	-0.13421972
16	0x3f5dfa03	0.8670961
17	0xbd478f9d	-0.048720945
18	0x3ef1404e	0.47119373
19	0xbd2e8ae5	-0.04261293
20	0x3e880496	0.26566
21	0xbe0b9264	-0.13630062
22	0xbe39fd5c	-0.18163055
23	0x3f6c606c	0.9233463
24	0xbd1e4754	-0.038642243
25	0x3eaa25e6	0.3323204
26	0x3d4bb76c	0.04973547
27	0x3de2696c	0.11055264
28	0xbd284a2e	-0.04108637
29	0xbe0f7400	-0.14009094
30	0x3f5e063e	0.86728275
31	0xbd46cf1d	-0.048537362
32	0x3ef293a6	0.47378272
33	0xbd3ec75f	-0.046576854
34	0x3e8d6e92	0.2762342
35	0xbe0eb070	-0.13934493
36	0xbe4ced2f	-0.20012353
37	0x3f6989be	0.912258
38	0xbd2e0474	-0.042484716
39	0x3eadb3cf	0.33926246
40	0x3d71e3f8	0.0590553
41	0x3ddc95d8	0.10770768
42	0xbd1de23a	-0.038545825
43	0xbe0e9056	-0.13922247
44	0x3f60974d	0.87730867
45	0xbd38b314	-0.045092657
46	0x3eed6f7f	0.46374127
47	0xbd3f8f41	-0.046767477
48	0x3e8d049b	0.27542576
49	0xbe111e04	-0.14171606
50	0xbe483005	-0.19549568
51	0x3f6ced74	0.92549825
52	0xbd36a298	-0.044588655
53	0x3eabdbd7	0.33566162
54	0x3d49499c	0.049142465
55	0x3dbfe202	0.093692794
56	0xbd25d02a	-0.040481724
57	0xbe17acdc	-0.14812034
58	0x3f5deec8	0.86692476
59	0xbd413e07	-0.047178295
60	0x3eebe0bf	0.46069905
61	0xbd2bf8ba	-0.04198525
62	0x3e83d497	0.2574813
63	0xbe156440	-0.14589024
64	0xbe3aebae	-0.18253967
65	0x3f721470	0.94562435
66	0xbd606394	-0.054782465
67	0x3eafbb0d	0.34322396
68	0x3d7db7b4	0.06194277
69	0x3db37a6e	0.08763586
70	0xbd2a0ffc	-0.04151915
71	0xbe197967	-0.14987718
72	0x3f5df812	0.8670665
73	0xbd468591	-0.048467223
74	0x3eeb7156	0.45984906
75	0xbd1eea17	-0.038797464
76	0x3e836c77	0.2566869
77	0xbe167e31	-0.14696576
78	0xbe363b4e	-0.1779606
79	0x3f729cf2	0.9477073
80	0xbd5dd2c4	-0.05415608
81	0x3eadaa24	0.3391887
82	0x3d86f692	0.06589998
83	0x3dbbcf88	0.09170443
84	0xbd3905a0	-0.04517138
85	0xbe17876b	-0.14797752
86	0x3f5dd239	0.866489
87	0xbd4a1253	-0.04933388
88	0x3ee9b3b9	0.4564493
89	0xbd2d4787	-0.042304542
90	0x3e7992f1	0.2437246
91	0xbe12f090	-0.1434958
92	0xbe3ad110	-0.18243814
93	0x3f70e1fa	0.9409481
94	0xbd32302c	-0.04350297
95	0x3eaa8eae	0.3331198
96	0x3d70de40	0.058805704
97	0x3dcb5f00	0.09930229
98	0xbd3fc626	-0.04681983
99	0xbe1a9299	-0.15094985
100	0x3f5f7390	0.8728571
101	0xbd451f97	-0.04812583
102	0x3ee94bb7	0.45565578
103	0xbd26cc05	-0.040721912
104	0x3e7bdb28	0.2459532
105	0xbe12d67b	-0.1433963
106	0xbe362c17	-0.17790256
107	0x3f7188ca	0.9434935
108	0xbd3b5e60	-0.0457443
109	0x3eaf52f4	0.34242976
110	0x3d70410c	0.058655784
111	0x3dcfd256	0.1014754
