tests/artifacts/policies/aloha_sim_insertion_human_act_1000_steps/actions.safetensors (safetensors, 515400 bytes, 1000 tensors)

0 f4 [8, 14]
000000 b5 17 f6 bc ac 4d ad be 04 3b 30 3f 57 a4 88 bc
       -0.030040601 -0.3384832 0.6884005 -0.016679926
000010 90 d9 c1 3e 22 5d 76 bd 1a a2 69 3e f5 7f a9 bd
       0.378613 -0.060147412 0.22815743 -0.08276359
000020 f4 53 84 be 14 0b 37 3f a8 7b d8 3d d8 56 17 3f
       -0.258453 0.7150128 0.105704606 0.5911689
000030 9d 43 7e be a2 e1 fd 3e 77 b4 fa bc ba d0 ac be
       -0.2483048 0.49586207 -0.03060363 -0.33752996
000040 a4 da 2e 3f fe 5f 95 bc 57 4b c1 3e c9 33 6c bd
       0.6830237 -0.01823425 0.37752792 -0.057666574
000050 e0 d5 63 3e 64 c7 af bd de 7b 84 be bd e1 37 3f
       0.22249556 -0.085829526 -0.25875753 0.71828824
000060 e1 b1 c3 3d 07 a6 15 3f d6 45 77 be be 2b fd 3e
       0.09555412 0.5845646 -0.24147734 0.49447435
000070 d4 eb 03 bd 56 60 ad be cb 78 32 3f c0 4d 8d bc
       -0.032207325 -0.3386256 0.69715565 -0.017248988
000080 80 c5 bf 3e 84 07 7f bd ee 8b 73 3e b9 4a a7 bd
       0.37455368 -0.062263027 0.23783848 -0.08168549
000090 69 20 8b be 44 e8 39 3f 38 20 d4 3d 2e 8d 13 3f
       -0.27173164 0.72620034 0.10357708 0.576373
0000a0 36 eb 6b be a0 62 f6 3e 7a 3e 09 bd a7 48 ac be
       -0.23038945 0.4812212 -0.033506848 -0.3364918
0000b0 5a f0 31 3f ce 7d 9a bc 3c 6b bd 3e 0b c4 7c bd
       0.6950737 -0.018858816 0.36995876 -0.0617104
0000c0 db 4b 6c 3e 56 71 b1 bd 03 6f 86 be fb 82 38 3f
       0.23075812 -0.08664195 -0.2625657 0.7207486
0000d0 5f 66 d3 3d b3 4d 11 3f 47 ba 5b be 82 d7 f7 3e
       0.1032226 0.56759185 -0.21457778 0.48406607
0000e0 82 38 00 bd f0 b1 a9 be 23 9f 31 3f 7c d3 30 bc
       -0.03130389 -0.33143568 0.6938345 -0.010792609
0000f0 41 c4 b9 3e a5 fb 66 bd 62 7a 69 3e 17 7b bc bd
       0.36282542 -0.05639233 0.22800592 -0.09203165
000100 1f 97 67 be 7a cf 33 3f e1 c4 ec 3d ab 57 11 3f
       -0.22616242 0.7023846 0.11560989 0.56774396
000110 5d 5a 79 be 71 7f f8 3e 00 92 07 bd 7d 68 a7 be
       -0.24350877 0.4853473 -0.03309822 -0.32696906
000120 12 f6 30 3f 2e db 33 bc 1d 48 b8 3e fd 4c 4e bd
       0.69125473 -0.0109775495 0.35992518 -0.05036639
000130 0b fc 70 3e fd b8 b9 bd 25 80 66 be a3 c7 32 3f
       0.23533647 -0.09068487 -0.22509821 0.6983587
000140 93 ae f1 3d a5 73 0f 3f 06 10 7e be e6 7c fd 3e
       0.118008755 0.56035835 -0.248108 0.49509352
000150 cf 2a f3 bc 40 7f a9 be 3e 08 30 3f a4 97 51 bc
       -0.029683499 -0.33104897 0.68762577 -0.012792502
000160 c5 af b9 3e cd ba 5d bd 41 85 63 3e 8e bb bf bd
       0.36266914 -0.054133225 0.22218801 -0.09361945
000170 cc 44 75 be 7d 4a 36 3f 05 76 e9 3d 61 c7 12 3f
       -0.23952025 0.7120741 0.113994636 0.5733548
000180 6a cb 76 be 3c 4d 00 3f cb 3e f9 bc 20 d8 a8 be
       -0.24101034 0.5011785 -0.03042545 -0.3297739
000190 5e 4e 2f 3f b8 7d 4b bc 9c 94 b7 3e 0c 0e 53 bd
       0.68478954 -0.01242011 0.35855567 -0.051527068
0001a0 c2 61 67 3e 49 ca bb bd 78 41 72 be d0 cf 37 3f
       0.22595885 -0.09169442 -0.23657787 0.7180147
0001b0 ed 97 eb 3d 43 90 11 3f 9f c5 72 be 32 20 ff 3e
       0.11503587 0.5686075 -0.23708199 0.4982925

1 f4 [8, 14]
000000 88 54 07 bd 6e e7 ae be d2 d6 2f 3f 42 61 78 bc
       -0.0330396 -0.34160942 0.68687165 -0.015159907
000010 c2 94 c0 3e 05 ea 80 bd 7f ad 6f 3e 46 9e b4 bd
       0.37613493 -0.06294636 0.23406027 -0.08819251
000020 11 c8 88 be 62 b9 37 3f ad 9f da 3d 0d 8f 16 3f
       -0.2671514 0.71767247 0.10674987 0.5881203
000030 c2 7b 74 be 49 3b f8 3e 2c 96 09 bd 3e c3 ae be
       -0.23875335 0.4848273 -0.03359048 -0.34133333
000040 36 9e 2e 3f 91 a6 89 bc c3 6e c0 3e e7 c2 78 bd
       0.6821016 -0.016803058 0.37584504 -0.06073275
000050 d7 af 69 3e 1d bd ba bd 90 37 89 be 1f db 38 3f
       0.22820984 -0.09118102 -0.26800203 0.7220935
000060 e7 35 c7 3d c6 06 15 3f de 5a 6e be da 2e f8 3e
       0.09727078 0.5821346 -0.2327685 0.48473245
000070 7a 7d 10 bd 5e a6 ae be aa 21 32 3f 55 49 83 bc
       -0.035275914 -0.34111303 0.6958262 -0.016026178
000080 9e c9 be 3e d3 09 86 bd 76 cd 79 3e 89 15 b1 bd
       0.37263197 -0.065448426 0.24394783 -0.08646686
000090 8a 41 8f be 0a bb 3a 3f b5 be d6 3d 1d b1 12 3f
       -0.2797969 0.7294165 0.10485593 0.57301503
0000a0 47 7d 63 be 28 5d f2 3e 76 72 18 bd a0 57 ad be
       -0.22215758 0.47336698 -0.037218533 -0.33855915
0000b0 a1 de 31 3f 6e e1 8c bc 87 22 bc 3e 28 d8 84 bd
       0.6948033 -0.017197337 0.36745092 -0.06486541
0000c0 5c 7f 72 3e eb 68 b9 bd 1e 5e 8b be d6 3b 39 3f
       0.23681396 -0.09053215 -0.27220243 0.7235693
0000d0 89 b5 d5 3d 23 7b 10 3f f1 f6 52 be 9c 3d f4 3e
       0.10435016 0.5643789 -0.20602013 0.47703254
0000e0 30 31 0e bd 51 b3 aa be c6 1c 31 3f d1 1e 1a bc
       -0.034714878 -0.33339933 0.6918453 -0.009406761
0000f0 8f 3a b8 3e 10 05 74 bd ba aa 6e 3e 75 81 c5 bd
       0.35982177 -0.05957514 0.23307315 -0.096438326
000100 b1 4f 71 be 0f 05 35 3f ec 4a f2 3d 68 8b 10 3f
       -0.23565556 0.70710844 0.118306965 0.5646272
000110 6e 96 70 be a8 b9 f5 3e 14 3b 17 bd c9 ab a8 be
       -0.23494884 0.47993207 -0.036921576 -0.32943562
000120 21 59 30 3f f0 b7 1d bc 3a f6 b6 3e 02 ec 5a bd
       0.68886 -0.009626374 0.3573473 -0.05344773
000130 4b 6e 75 3e 5c e7 c1 bd ac 3e 6f be a2 d0 33 3f
       0.23967855 -0.094679564 -0.23363751 0.70240223
000140 f1 4d f6 3d f2 91 0e 3f 74 f9 74 be 9c 54 fa 3e
       0.12026585 0.55691445 -0.23923284 0.48892677
000150 a8 99 08 bd b5 d9 aa be 04 af 2f 3f f7 a1 3c bc
       -0.033349663 -0.33369222 0.6862643 -0.011513225
000160 78 82 b8 3e aa 5f 69 bd f1 bb 68 3e 8c ad c8 bd
       0.3603704 -0.056975998 0.22727944 -0.097987264
000170 39 97 7d be 86 6e 37 3f 3f af ef 3d 26 01 12 3f
       -0.24764718 0.7165302 0.117033474 0.57033
000180 78 4c 6d be fc 8f fc 3e 4c ee 0b bd 24 50 aa be
       -0.23173702 0.493286 -0.034162804 -0.33264267
000190 1c e8 2e 3f b2 8c 39 bc dc 52 b6 3e 35 c9 5e bd
       0.6832292 -0.011325048 0.35610092 -0.054391105
0001a0 35 0d 6d 3e d7 a6 c4 bd de 7d 7b be de fb 38 3f
       0.2314957 -0.09602135 -0.24559733 0.7225932
0001b0 cd 49 f1 3d bc d4 10 3f 4a e6 68 be fb 0f fb 3e
       0.117816545 0.56574607 -0.22744098 0.4903563

10 f4 [8, 14]
000000 50 de 04 bd a6 36 ac be d7 1c 2e 3f 39 63 95 bc
       -0.032438576 -0.33635443 0.68012756 -0.01823579
000010 25 c5 c6 3e d1 c5 85 bd 8c e3 68 3e d3 5e b8 bd
       0.38822284 -0.06531871 0.22743052 -0.09002461
000020 f8 5b 8c be 36 16 39 3f a4 33 e7 3d 31 39 16 3f
       -0.27413917 0.72299516 0.112891465 0.5868102
000030 e4 ce 6f be aa 33 f8 3e 58 aa 06 bd 58 e0 ab be
       -0.23418766 0.48476917 -0.032877296 -0.33569598
000040 60 10 2d 3f c7 65 9f bc 81 47 c6 3e d3 3e 81 bd
       0.6760311 -0.01945771 0.38726428 -0.06310811
000050 42 48 63 3e a4 b3 be bd 33 c2 8c be 9a f4 39 3f
       0.22195533 -0.093116075 -0.27491912 0.7263886
000060 92 4d d4 3d d4 ee 14 3f 80 ae 68 be 9d 3e f8 3e
       0.10366358 0.5817692 -0.22722816 0.4848527
000070 28 b6 0c bd ee 30 ac be 05 7b 30 3f 44 db 9f bc
       -0.034353405 -0.3363108 0.6893771 -0.019513734
000080 67 b3 c4 3e 16 1d 8a bd 64 9c 74 3e 46 ee b4 bd
       0.38418123 -0.06743829 0.23887783 -0.088345096
000090 40 6e 92 be 63 40 3c 3f 79 ce e2 3d c1 4c 12 3f
       -0.2859974 0.73535746 0.11074538 0.5714837
0000a0 3a c4 5d be 38 ea f0 3e 9e f5 13 bd 64 4d ab be
       -0.21656886 0.47053695 -0.03612291 -0.33457482
0000b0 ff 2f 30 3f 9a 96 aa bc f6 ab c1 3e 57 26 89 bd
       0.68823236 -0.020823766 0.37826508 -0.06696766
0000c0 04 af 6d 3e df c3 bd bd c7 bb 8d be 96 91 3a 3f
       0.23211294 -0.09265875 -0.27682325 0.72878397
0000d0 b1 cd e2 3d 19 34 10 3f 6a 04 4d be 0d 12 f3 3e
       0.11074389 0.56329495 -0.20021215 0.4747471
0000e0 2c d5 07 bd 89 17 a8 be 9b d3 2f 3f f8 64 4e bc
       -0.03316228 -0.32830456 0.6868226 -0.012597315
0000f0 54 12 be 3e a6 da 7b bd d1 04 68 3e 4d 3d ca bd
       0.37123358 -0.061487816 0.22658087 -0.098749734
000100 4e bb 76 be bf ce 35 3f fa 42 fc 3d 5e c9 10 3f
       -0.24094889 0.71018595 0.12317462 0.5655726
000110 08 6a 6c be 2c a9 f4 3e 9e e4 0f bd cc 70 a5 be
       -0.23087323 0.47785318 -0.035130136 -0.3231262
000120 f8 32 2f 3f 00 95 4c bc 6f 19 bd 3e e3 02 65 bd
       0.6843715 -0.012486696 0.36933467 -0.055910956
000130 5d a0 6e 3e 06 54 c8 bd 5c 78 75 be 75 bc 34 3f
       0.23303361 -0.09781651 -0.23971695 0.7060006
000140 2d 33 00 3e 40 0a 0f 3f 90 70 70 be 48 5d f9 3e
       0.12519522 0.55875015 -0.23480439 0.4870398
000150 60 35 01 bd 6a 52 a7 be 9a 8e 2e 3f 68 1f 6e bc
       -0.031545043 -0.32680064 0.6818634 -0.014533855
000160 7d 91 be 3e 2b 3e 73 bd 1a 6c 61 3e 4f 13 cf bd
       0.37220374 -0.05938546 0.22013894 -0.10111105
000170 d2 a3 81 be 56 17 38 3f 43 d0 fb 3d 1c 1d 12 3f
       -0.25320297 0.7191061 0.12295582 0.5707567
000180 cd 51 69 be d0 62 fb 3e 8a 5a 04 bd c6 00 a7 be
       -0.22785111 0.49098825 -0.032312907 -0.32617778
000190 19 bc 2d 3f 27 05 6b bc 52 7d bc 3e 34 d9 69 bd
       0.6786514 -0.01434449 0.36814362 -0.057091907
0001a0 5b b4 65 3e 38 08 cb bd 16 78 80 be 00 a1 39 3f
       0.22432081 -0.09913677 -0.25091618 0.7251129
0001b0 cb 0b fe 3d 9f d2 10 3f 72 2f 65 be 7d 7e fa 3e
       0.12404593 0.5657138 -0.2238138 0.48924628

100 f4 [8, 14]
000000 bc 80 09 bd 5c bd ac be 6c 9c 2f 3f 6e db 7e bc
       -0.033570036 -0.3373822 0.68598056 -0.015555246
000010 0c 2b c1 3e e4 e3 86 bd 9a a0 6b 3e d1 11 b4 bd
       0.37728155 -0.065864354 0.23010483 -0.08792461
000020 c4 9a 8f be 47 36 37 3f 75 58 e9 3d 45 68 16 3f
       -0.28047764 0.71567196 0.11393825 0.5875285
000030 cc 30 6b be 65 cc 00 3f 44 fc 09 bd 1a bc ac be
       -0.22967833 0.5031188 -0.033687845 -0.3373726
000040 17 8e 2e 3f 75 4c 8d bc c2 db c0 3e be c6 82 bd
       0.6818556 -0.017248372 0.37667662 -0.06385563
000050 2e 76 66 3e 18 71 b9 bd 40 80 8f be ad cf 37 3f
       0.2250602 -0.09054774 -0.28027534 0.71801263
000060 29 13 d5 3d 56 bf 14 3f 3e f9 64 be 30 70 00 3f
       0.10404045 0.58104455 -0.22360703 0.50171185
000070 18 80 14 bd a6 53 ad be e5 05 32 3f 73 79 85 bc
       -0.036254972 -0.3385288 0.69540244 -0.016293263
000080 00 3a bf 3e 30 0d 8d bd d7 88 77 3e 97 16 b2 bd
       0.37348938 -0.06887281 0.24173294 -0.08695715
000090 ff e6 94 be a8 62 3a 3f e5 1c e4 3d 76 a4 11 3f
       -0.29082486 0.7280679 0.11138324 0.5689157
0000a0 c4 64 59 be d2 31 f9 3e d4 c8 1a bd 84 80 ab be
       -0.21229845 0.48670822 -0.03778918 -0.33496487
0000b0 59 d1 31 3f d9 b7 92 bc 20 8e bc 3e 19 0c 8b bd
       0.69460064 -0.017909931 0.36827183 -0.06789417
0000c0 b1 e3 70 3e 0d a7 b9 bd f4 9f 90 be 27 e3 38 3f
       0.23524357 -0.090650655 -0.28247035 0.72221607
0000d0 b4 bd e2 3d ff b2 0f 3f 17 6b 49 be ce 10 fb 3e
       0.11071339 0.561325 -0.19669758 0.49036258
0000e0 84 ba 0f bd 60 9e a8 be 3a b3 31 3f 20 90 1f bc
       -0.035089985 -0.3293333 0.69414103 -0.009738952
0000f0 ce ea b8 3e 55 2d 82 bd 28 a2 6c 3e 07 15 c6 bd
       0.36116642 -0.06356303 0.23108733 -0.096719794
000100 58 90 7c be a5 49 34 3f 03 68 fe 3d 66 38 10 3f
       -0.24664438 0.7042487 0.124221824 0.5633606
000110 9a 34 66 be c0 16 fc 3e d4 39 16 bd e2 41 a6 be
       -0.22481003 0.49236107 -0.036676243 -0.3247214
000120 f0 ed 30 3f 81 46 1e bc 74 55 b7 3e 7b fc 6d bd
       0.69113064 -0.009660364 0.35807383 -0.058102112
000130 80 25 73 3e 83 a6 c3 bd 78 a4 7b be 20 f9 32 3f
       0.23744774 -0.09553244 -0.24574459 0.69911385
000140 f5 13 01 3e 6c 3f 0e 3f e0 2c 6a be 46 6b 00 3f
       0.12605269 0.55565524 -0.22868681 0.50163686
000150 42 07 09 bd c6 0d a8 be cb 07 30 3f 55 3a 3e bc
       -0.033454187 -0.32823008 0.6876189 -0.011610587
000160 50 e2 b8 3e 0c 88 7a bd 05 fd 65 3e 26 b7 c9 bd
       0.36110163 -0.0611649 0.224598 -0.09849386
000170 23 53 85 be b1 55 36 3f b5 df f9 3d e8 b5 11 3f
       -0.2603999 0.71224505 0.12200872 0.5691819
000180 b6 20 63 be e0 81 01 3f ac 70 0c bd b3 74 a7 be
       -0.22180447 0.505888 -0.03428714 -0.32706222
000190 3f 37 2f 3f 17 a1 3a bc df 0b b7 3e b0 b9 70 bd
       0.68443674 -0.011390946 0.35751244 -0.058770835
0001a0 4d fe 69 3e 94 0c c6 bd c5 0d 84 be d8 f0 37 3f
       0.22850914 -0.09670368 -0.25791755 0.71851873
0001b0 01 df fb 3d f6 4a 10 3f 92 fb 5e be a0 c6 00 3f
       0.12298394 0.5636438 -0.21775654 0.5030308

101 f4 [8, 14]
000000 91 50 ee bc 2e 3a ad be dd b8 2f 3f 6f bd 86 bc
       -0.029091151 -0.3383345 0.68641454 -0.01644775
000010 1f aa c5 3e de e6 80 bd 95 13 68 3e 86 21 b3 bd
       0.38606355 -0.062940344 0.2266372 -0.087466285
000020 30 32 87 be cf a2 37 3f 78 1b e1 3d e7 fa 17 3f
       -0.26405478 0.717328 0.109915674 0.5936722
000030 38 e7 7a be a8 8f fd 3e 99 92 f2 bc 24 02 ad be
       -0.24502265 0.49523664 -0.029610919 -0.33790696
000040 af 68 2e 3f 76 51 93 bc b6 2f c5 3e e3 51 79 bd
       0.68128484 -0.01798318 0.38512963 -0.06086911
000050 fe ad 62 3e 60 68 b9 bd 8e 87 87 be 74 a6 38 3f
       0.22136685 -0.09053111 -0.26470608 0.7212899
000060 e7 6c cd 3d 9e 64 16 3f 2a 3e 73 be ba 1a fd 3e
       0.10030537 0.5874728 -0.23754182 0.49434453
000070 3c ed 00 bd 98 67 ad be fd 99 31 3f 3e da 8b bc
       -0.031476244 -0.33868098 0.6937559 -0.01707184
000080 e4 cf c3 3e 19 2a 85 bd 04 77 73 3e f6 de b1 bd
       0.38244545 -0.0650217 0.2377587 -0.086851045
000090 40 a9 8d be 77 6a 3a 3f 09 be dd 3d 0e af 13 3f
       -0.2766819 0.728187 0.10827262 0.5768899
0000a0 21 99 66 be 15 e8 f5 3e de 51 06 bd 16 8b ac be
       -0.22519352 0.48028627 -0.03279292 -0.33699864
0000b0 81 46 31 3f 9d 03 98 bc e2 7a c1 3e 74 d9 84 bd
       0.69248205 -0.01855641 0.37789065 -0.064867884
0000c0 c5 71 6c 3e 25 09 bb bd 78 37 89 be 45 e9 38 3f
       0.23090275 -0.091326036 -0.26800132 0.7223094
0000d0 23 89 dd 3d d1 64 11 3f 6a cd 55 be c2 f4 f7 3e
       0.108171724 0.5679446 -0.2087914 0.48428923
0000e0 07 e8 f9 bc d8 23 a9 be 8d 42 31 3f 4b 82 32 bc
       -0.030506147 -0.3303516 0.69242173 -0.010895322
0000f0 42 87 bd 3e c4 6a 77 bd 24 a6 67 3e 73 6d c8 bd
       0.37017256 -0.060404554 0.22621971 -0.09786501
000100 03 0a 70 be be 3d 34 3f 49 d2 f8 3d 17 13 12 3f
       -0.23441319 0.7040671 0.12149484 0.5706038
000110 ae 4e 74 be a3 6c f9 3e 44 31 04 bd b0 e6 a6 be
       -0.23858139 0.48715696 -0.032273546 -0.32597876
000120 51 7e 30 3f bd 54 36 bc d1 42 bc 3e 7c 57 5f bd
       0.68942744 -0.011128602 0.36769727 -0.05452679
000130 ba 5f 6e 3e 41 a2 c5 bd b8 c7 6e be f0 1d 33 3f
       0.23278704 -0.09650088 -0.23318374 0.69967556
000140 a9 d9 fc 3d 5d 3c 10 3f 1c ee 78 be 9c 0b fe 3e
       0.12346203 0.5634211 -0.24309582 0.49618232
000150 3d a8 eb bc fc 11 a9 be ef b9 2f 3f 1e f6 4f bc
       -0.028766746 -0.33021533 0.6864309 -0.012692956
000160 bc a4 bd 3e cc 26 6f bd 1f 34 61 3e f0 01 cd bd
       0.37039745 -0.05838661 0.21992539 -0.10010135
000170 d6 8f 7c be a9 96 36 3f 31 c0 f6 3d 88 91 13 3f
       -0.24664244 0.7132364 0.12048376 0.5764394
000180 35 fb 71 be f7 3c 00 3f 61 35 f2 bc 92 77 a8 be
       -0.23630984 0.50093025 -0.029566469 -0.32903725
000190 98 ec 2e 3f 79 14 4b bc ff 70 bb 3e 65 f1 64 bd
       0.68329763 -0.012395018 0.36609647 -0.055894274
0001a0 f6 6c 65 3e d0 33 c9 bd 82 b8 79 be e4 1c 38 3f
       0.22404847 -0.098243356 -0.2438679 0.71919084
0001b0 2b f4 f8 3d bb 31 12 3f 44 b1 6d be 68 35 ff 3e
       0.12155946 0.5710713 -0.23212153 0.49845433

102 f4 [8, 14]
000000 c3 0f fe bc 7e 36 b1 be a2 67 30 3f 8d ef 8b bc
       -0.031013375 -0.34611887 0.6890813 -0.017082
000010 9e 0a c3 3e 19 fa 81 bd d8 36 69 3e c7 06 b0 bd
       0.38094038 -0.063465305 0.22774827 -0.08595043
000020 9d 3e 8c be 03 5d 37 3f 42 f6 dd 3d bc 4a 15 3f
       -0.2739152 0.716263 0.108379856 0.5831716
000030 8a a0 71 be 32 10 fa 3e ea af 00 bd 5c f9 b0 be
       -0.23596397 0.4884048 -0.031417765 -0.34565246
000040 b3 25 2f 3f fe 14 98 bc ca dc c2 3e 03 a6 79 bd
       0.684169 -0.018564697 0.38059074 -0.060949337
000050 f2 63 64 3e 7f f4 b5 bd 05 fb 8c be 3a 30 38 3f
       0.22303751 -0.088845246 -0.27535263 0.7194859
000060 bf 61 c9 3d 2c d5 13 3f d0 a2 6b be d6 15 fa 3e
       0.09833097 0.5774715 -0.23011327 0.48844784
000070 76 e2 07 bd 3a 06 b1 be c3 94 32 3f 6e 58 94 bc
       -0.033174954 -0.34575063 0.6975824 -0.018108573
000080 3e 8a c1 3e fe b1 85 bd eb be 75 3e 38 a1 aa bd
       0.37800783 -0.0652809 0.2399861 -0.08331531
000090 6e 60 93 be 5f 11 3a 3f b8 31 d8 3d 7d fc 10 3f
       -0.28784508 0.72682756 0.10556358 0.56635267
0000a0 dc 56 5f be 61 75 f2 3e ae 2e 0f bd ae 90 af be
       -0.21810478 0.47355178 -0.034956627 -0.3429007
0000b0 91 45 32 3f e6 b8 9b bc 95 3c bf 3e b4 03 85 bd
       0.696374 -0.019009065 0.37350908 -0.06494847
0000c0 3a 2c 6e 3e 85 9f b3 bd 05 ba 8e be 1d 7f 38 3f
       0.23259059 -0.0877066 -0.27876297 0.7206896
0000d0 23 fb d6 3d 21 02 0f 3f 57 a0 4e be 8e 84 f5 3e
       0.10497119 0.55862623 -0.20178352 0.47952694
0000e0 72 24 06 bd 02 34 ad be 35 00 32 3f 50 00 35 bc
       -0.0327496 -0.3382874 0.69531566 -0.011047438
0000f0 25 f8 ba 3e 45 a5 76 bd da 9d 69 3e 30 17 c3 bd
       0.36517444 -0.060216207 0.22814122 -0.09525907
000100 52 88 77 be b3 19 34 3f 6b 85 f2 3d 71 36 0f 3f
       -0.24173096 0.70351714 0.11841854 0.55942446
000110 eb 5c 6d be 15 48 f7 3e aa 2c 0d bd 47 f0 aa be
       -0.23179977 0.48297182 -0.034466423 -0.33386442
000120 eb 4c 31 3f 5c ed 36 bc e3 d0 b9 3e 51 11 5f bd
       0.6925799 -0.011164989 0.3629218 -0.054459874
000130 ed be 6f 3e 46 1b c0 bd 37 35 76 be 63 ec 32 3f
       0.23412676 -0.09380202 -0.24043737 0.6989195
000140 98 8f f6 3d 9b 5b 0d 3f 94 63 72 be b2 4f fc 3e
       0.12039107 0.55217904 -0.23670799 0.49279553
000150 23 d9 fd bc 7a e4 ac be d5 a2 30 3f 0f 97 51 bc
       -0.030987328 -0.33768064 0.6899846 -0.012792363
000160 eb ca bb 3e ba c8 6d bd 0e e4 61 3e 23 6e c6 bd
       0.36678252 -0.058052756 0.22059652 -0.09688976
000170 28 79 82 be 16 5c 36 3f ca 65 f0 3d e1 b2 10 3f
       -0.2548306 0.7123426 0.11738165 0.5652295
000180 41 e4 6a be e4 ba fe 3e 70 68 02 bd 07 7c ac be
       -0.22938634 0.4975196 -0.03183788 -0.33688375
000190 a9 e6 2f 3f 18 1a 4c bc a6 ce b9 3e 7d ff 63 bd
       0.68711334 -0.012457393 0.36290473 -0.055663574
0001a0 2d 0e 66 3e 9a bb c2 bd 37 33 81 be 32 d5 37 3f
       0.22466345 -0.095084384 -0.25234386 0.71809685
0001b0 9b 72 f2 3d b2 83 0f 3f f6 b8 66 be d6 68 fd 3e
       0.118382655 0.56060326 -0.22531494 0.49494046

103 f4 [8, 14]
000000 92 d2 07 bd 50 5b ab be ab d7 2f 3f 80 08 8c bc
       -0.0331598 -0.33468103 0.6868846 -0.017093897
000010 9e 28 c2 3e 1e a7 80 bd e2 43 64 3e 1e a6 ba bd
       0.37921613 -0.06281875 0.2229152 -0.091137156
000020 b7 4c 87 be 23 3a 38 3f 24 94 df 3d 78 d4 17 3f
       -0.26425716 0.7196371 0.109169275 0.59308577
000030 84 11 72 be e2 aa fa 3e 2a 57 09 bd 63 36 ab be
       -0.23639494 0.48958498 -0.03353039 -0.3343993
000040 9f 98 2e 3f 31 55 96 bc 46 b9 c1 3e 8f 53 77 bd
       0.6820163 -0.01835117 0.37836665 -0.060382422
000050 4e 6a 5f 3e 0f 25 c1 bd c8 84 87 be e0 5b 39 3f
       0.21817896 -0.094308965 -0.26468492 0.72405815
000060 ce 69 cb 3d a8 49 16 3f c7 c1 6b be cc 78 fa 3e
       0.0993229 0.5870614 -0.23023139 0.48920286
000070 96 1f 0d bd b6 ea ab be 3a 06 32 3f ef 01 94 bc
       -0.03445395 -0.33577508 0.6954075 -0.018067328
000080 c6 e4 bf 3e 33 e9 84 bd 63 af 6f 3e 04 5c b8 bd
       0.37479228 -0.06489792 0.23406748 -0.090019256
000090 a6 02 8e be 70 54 3b 3f 33 0d da 3d e8 a3 13 3f
       -0.27736396 0.73175716 0.10647049 0.57671976
0000a0 94 ce 5e be 45 50 f4 3e 40 64 13 bd e7 75 aa be
       -0.21758491 0.4771749 -0.035984278 -0.33293077
0000b0 88 b8 31 3f 7c 30 a1 bc 38 1c bd 3e cb db 83 bd
       0.694222 -0.01967644 0.36935592 -0.064384066
0000c0 2d 1a 69 3e b7 ae c0 bd cb e2 89 be bc a8 39 3f
       0.22763892 -0.09408324 -0.26930842 0.72523093
0000d0 99 a3 d9 3d b0 83 11 3f 81 7f 4e be ab 67 f5 3e
       0.10626907 0.56841564 -0.20165826 0.47930655
0000e0 7a 33 09 bd d2 4d a7 be 48 31 31 3f bc 92 3a bc
       -0.033496358 -0.3267656 0.6921582 -0.011387523
0000f0 58 65 b9 3e a4 89 72 bd 5c 65 63 3e ed 37 cd bd
       0.36210132 -0.059213296 0.22206634 -0.100204326
000100 85 8b 6f be 0c 21 35 3f f2 3e f5 3d f2 17 12 3f
       -0.23393066 0.7075355 0.119748965 0.5706779
000110 2c fe 6c be ee f6 f7 3e 22 73 10 bd 5b 0e a5 be
       -0.23143834 0.4843058 -0.03526605 -0.32237515
000120 63 6d 30 3f a0 d7 3d bc 36 08 b8 3e 08 59 58 bd
       0.6891691 -0.011587054 0.35943764 -0.05281928
000130 1c d9 69 3e 84 e9 ca bd 18 0c 6d be f7 21 34 3f
       0.22836727 -0.09907821 -0.23149145 0.70364326
000140 b1 01 f9 3d b7 48 10 3f d4 7f 71 be d0 5f fc 3e
       0.12158526 0.56360954 -0.23583919 0.4929185
000150 c4 58 02 bd 5a a3 a6 be 7d ca 2f 3f 8c 0b 5c bc
       -0.031822935 -0.32546502 0.6866835 -0.013430487
000160 00 f0 b9 3e 97 77 6a bd 44 cf 5b 3e d3 79 d1 bd
       0.36315918 -0.057242956 0.21465784 -0.10228314
000170 02 1a 7d be 8a 79 37 3f d5 3a f3 3d d4 78 13 3f
       -0.24716952 0.7166983 0.11876456 0.57606244
000180 66 15 6a be f6 9d fe 3e 62 36 05 bd 51 05 a6 be
       -0.22859725 0.4972989 -0.032522567 -0.3242593
000190 ad f6 2e 3f 76 2d 58 bc 73 d9 b7 3e 82 3b 60 bd
       0.6834515 -0.0131944325 0.35908088 -0.05474425
0001a0 05 cb 5f 3e 86 0a cd bd c4 bc 7a be 49 f7 38 3f
       0.2185479 -0.10011773 -0.24486071 0.7225233
0001b0 52 f4 f4 3d a2 2f 12 3f 32 69 66 be 3a c4 fd 3e
       0.11960663 0.5710393 -0.22501066 0.4956377

104 f4 [8, 14]
000000 a9 ab e9 bc ef 12 b2 be 4c c1 2f 3f 06 16 96 bc
       -0.028524237 -0.3478007 0.6865432 -0.018321048
000010 f2 38 c0 3e 96 03 81 bd a6 1c 63 3e f0 3d a8 bd
       0.37543446 -0.06299512 0.22178897 -0.08214939
000020 5a 95 8b be 16 ea 37 3f 80 d0 d4 3d d9 70 16 3f
       -0.27262384 0.7184156 0.10391331 0.5876594
000030 eb 6c 75 be 3a 33 f8 3e 57 57 ea bc f3 f4 b1 be
       -0.2396733 0.48476583 -0.0286061 -0.34757194
000040 f0 52 2e 3f 39 89 a1 bc b7 04 c0 3e 56 e7 74 bd
       0.680953 -0.019718753 0.37503597 -0.05979093
000050 17 a5 5e 3e 5f 43 ae bd d0 28 8c be 3d 04 39 3f
       0.21742664 -0.08508944 -0.27374887 0.7227209
000060 5d 42 c0 3d bb e9 14 3f 0d 51 6f be ea 99 f8 3e
       0.09387658 0.58169144 -0.23370762 0.48554927
000070 4f 19 f8 bc 76 0f b2 be 4d 19 32 3f f7 d8 9d bc
       -0.030285506 -0.3477742 0.69569856 -0.019268496
000080 5a 53 be 3e ff 2d 82 bd 98 57 6d 3e 19 15 a3 bd
       0.37172967 -0.06356429 0.23177946 -0.079630084
000090 d2 52 91 be 6e db 3a 3f e3 28 d0 3d eb 49 12 3f
       -0.283835 0.72991073 0.101640485 0.5714404
0000a0 5e 9c 63 be c7 f3 f0 3e c8 ab 04 bd f2 fb b0 be
       -0.22227618 0.47060987 -0.032390386 -0.3456722
0000b0 0f d8 31 3f a2 9b a3 bc f3 5f bc 3e 1d cf 81 bd
       0.69470304 -0.019971672 0.36791953 -0.06338332
0000c0 75 b2 66 3e 40 fa ac bd b2 3e 8d be 5f 74 39 3f
       0.22529013 -0.08446169 -0.27586895 0.72443193
0000d0 95 7b cf 3d 26 2f 10 3f 0e 5e 54 be d5 67 f3 3e
       0.10130993 0.5632194 -0.20739004 0.47540155
0000e0 87 c0 fa bc 92 15 ae be 47 8e 31 3f 45 02 37 bc
       -0.030609382 -0.34000832 0.69357723 -0.011169975
0000f0 3c 58 b8 3e 4f 3a 71 bd a8 5b 63 3e 6c 7a b8 bd
       0.36004817 -0.058893498 0.22202933 -0.09007725
000100 a1 a9 75 be 39 b9 34 3f 98 c6 e9 3d 99 55 10 3f
       -0.2399049 0.7059513 0.11414832 0.5638061
000110 40 99 72 be 62 35 f5 3e 00 10 04 bd 8a dc ab be
       -0.23691273 0.4789229 -0.03224182 -0.33566695
000120 25 bc 30 3f 60 56 3d bc 86 f4 b6 3e 1a 03 59 bd
       0.69037086 -0.011556238 0.35733432 -0.052981474
000130 5c d7 69 3e 2b f5 b5 bd d6 d3 75 be e8 e9 33 3f
       0.2283606 -0.08884653 -0.2400659 0.7027879
000140 6a 83 ed 3d 46 9f 0e 3f 44 f2 76 be 84 fc f9 3e
       0.11597331 0.5571178 -0.24115855 0.48825467
000150 7b b3 e7 bc f4 b1 ad be 83 c0 2f 3f c6 8e 5d bc
       -0.028283825 -0.3392483 0.68653125 -0.013522809
000160 6f db b8 3e 1f f9 67 bd 6a d2 5b 3e b5 4a bc bd
       0.36104915 -0.056634065 0.21466985 -0.09193937
000170 c5 b4 81 be d0 41 37 3f b9 19 e7 3d fa c8 11 3f
       -0.2533323 0.71584797 0.11284203 0.5694729
000180 a4 54 6f be 94 04 fd 3e 79 38 ef bc da 34 ad be
       -0.23372132 0.49417555 -0.029201733 -0.33829385
000190 82 00 2f 3f 48 29 57 bc 7c c5 b6 3e 0d 3d 5e bd
       0.6836015 -0.013132401 0.35697544 -0.05425744
0001a0 f5 09 60 3e 4b 8b b8 bd 6e 5b 80 be d2 c9 38 3f
       0.21878798 -0.09010943 -0.25069755 0.72182953
0001b0 53 3d e9 3d 68 a9 10 3f 2f 51 6b be 65 07 fc 3e
       0.1138865 0.56508493 -0.22980188 0.49224392

105 f4 [8, 14]
000000 ea 4c 0f bd e0 07 ae be ad 44 31 3f f8 61 62 bc
       -0.03498546 -0.33990383 0.69245416 -0.013817303
000010 39 45 c3 3e 71 f7 84 bd 36 6a 6d 3e ff c8 ab bd
       0.3813875 -0.06492508 0.23185048 -0.08387946
000020 a8 d0 87 be ea 14 38 3f fa 45 d9 3d 3c 2c 16 3f
       -0.2652638 0.7190691 0.1060905 0.58661246
000030 aa 69 77 be 9e 12 f8 3e e0 56 11 bd 06 b8 ad be
       -0.24161401 0.48451704 -0.03548324 -0.3392946
000040 a4 19 30 3f 92 fe 77 bc e5 a1 c2 3e d8 9a 80 bd
       0.68789124 -0.015136378 0.3801414 -0.06279534
000050 33 89 67 3e 5f 50 b2 bd 55 ed 87 be a0 fb 38 3f
       0.22610931 -0.08706736 -0.26548257 0.7225895
000060 c0 70 c6 3d 21 ce 14 3f a0 ca 70 be 74 f3 f7 3e
       0.09689474 0.5812703 -0.23514795 0.48427927
000070 ec c3 18 bd 5c dd ad be 5e 94 33 3f cc 90 6c bc
       -0.03729622 -0.33957946 0.70148265 -0.014438819
000080 c1 72 c1 3e 33 1b 89 bd 55 56 78 3e 05 e5 aa bd
       0.37782863 -0.06694641 0.24251683 -0.08344463
000090 e0 af 8d be e1 d4 3a 3f 6c 06 d5 3d 05 b5 12 3f
       -0.27673244 0.7298108 0.104016155 0.57307464
0000a0 66 10 64 be dc 5f f0 3e 5a 7c 1e bd a3 1e ac be
       -0.2227188 0.46948135 -0.03869281 -0.33617124
0000b0 6e 38 33 3f 92 38 83 bc 64 ed be 3e c6 23 87 bd
       0.7000798 -0.016018186 0.3729049 -0.0659862
0000c0 c5 ef 70 3e 14 98 b2 bd 4f d1 89 be dd 3f 39 3f
       0.23528965 -0.08720413 -0.26917502 0.7236307
0000d0 ea fd d3 3d 8f 83 10 3f 5a 28 54 be 5e 07 f2 3e
       0.10351165 0.5645074 -0.20718518 0.47271246
0000e0 88 ba 13 bd 56 4f aa be 39 c6 32 3f 2b 0d fc bb
       -0.036066562 -0.33263654 0.69833714 -0.0076919994
0000f0 b2 b7 bb 3e 7a fd 7d bd 8c d8 6b 3e bd 79 c0 bd
       0.36663586 -0.062009312 0.23031825 -0.0939822
000100 dd 62 6e be 97 21 35 3f 0e 24 f0 3d e7 9f 10 3f
       -0.23279901 0.7075438 0.11725627 0.5649399
000110 a4 31 70 be e0 d0 f3 3e 56 b6 1b bd 7a 43 a8 be
       -0.23456436 0.47620296 -0.038015686 -0.3286398
000120 42 2b 32 3f 61 70 01 bc 31 35 ba 3e 59 87 68 bd
       0.69597256 -0.007900328 0.36368707 -0.056769703
000130 58 6d 73 3e bc 50 be bd 40 a1 6d be 69 26 34 3f
       0.2377218 -0.092927426 -0.23206043 0.7037111
000140 ea a2 f3 3d a4 a1 0e 3f 83 53 74 be 3c a6 f8 3e
       0.11896308 0.55715394 -0.23859982 0.48564327
000150 86 44 0c bd 15 14 aa be b7 3a 31 3f 56 12 1d bc
       -0.034245037 -0.33218446 0.69230217 -0.009586891
000160 5b 92 bb 3e 6b 7c 76 bd 4c 3d 66 3e 42 44 c4 bd
       0.36635098 -0.060177248 0.2248432 -0.09583332
000170 f9 d3 7a be 0a 62 37 3f 52 5a ec 3d 80 c1 11 3f
       -0.24494924 0.7163397 0.11540665 0.5693588
000180 a8 b7 6d be 7b bf fa 3e d0 86 0f bd 9e 6b a9 be
       -0.2321459 0.48974213 -0.035040677 -0.33089918
000190 f9 6d 30 3f 20 f8 17 bc 68 a7 b9 3e 27 2a 6c bd
       0.68917805 -0.009275466 0.36260533 -0.057657387
0001a0 d0 4e 6a 3e b6 64 c0 bd 50 a6 78 be 34 e0 38 3f
       0.22881627 -0.09394209 -0.24282193 0.72217107
0001b0 b8 29 ee 3d 2c 69 10 3f cd a0 69 be 6a 99 f9 3e
       0.11629051 0.5641048 -0.22815247 0.48749858

106 f4 [8, 14]
000000 80 f6 02 bd 4c e0 ad be 3a 53 30 3f 4a 65 87 bc
       -0.031973362 -0.33960187 0.68876994 -0.01652779
000010 fe 33 c5 3e f9 32 86 bd 8b 75 68 3e 98 84 b8 bd
       0.3851623 -0.06552691 0.22701089 -0.09009665
000020 dc 51 8a be 18 bd 37 3f 22 66 df 3d 26 5e 15 3f
       -0.2701558 0.7177291 0.10908152 0.58346784
000030 b0 4b 72 be a8 06 fe 3e 1e 0b 05 bd 6f 77 ad be
       -0.23661685 0.49614453 -0.032481305 -0.33880183
000040 a1 02 2f 3f fe d9 93 bc 46 76 c4 3e 80 c0 81 bd
       0.68363386 -0.018048283 0.38371485 -0.063355446
000050 a8 bf 62 3e ba 91 be bd e2 81 8a be b9 91 38 3f
       0.22143424 -0.09305139 -0.27052218 0.72097355
000060 0a 86 cb 3d 95 25 14 3f 50 d0 6b be 06 e1 fd 3e
       0.09937675 0.57869846 -0.23028684 0.49585742
000070 8e ea 0d bd bd 65 ad be 05 a8 32 3f 80 9d 89 bc
       -0.034647517 -0.33866683 0.6978763 -0.016798735
000080 ca f7 c2 3e a8 97 8b bd 21 61 73 3e fc e7 b6 bd
       0.38079673 -0.068160355 0.2376752 -0.08930966
000090 3d 87 90 be 7b ad 3a 3f fc 33 dc 3d 0c 55 11 3f
       -0.2822818 0.7292096 0.10752103 0.56770396
0000a0 81 6c 61 be db b8 f6 3e e0 2a 13 bd 46 45 ac be
       -0.22014047 0.4818791 -0.03592956 -0.336466
0000b0 6f 4b 32 3f 08 7e 95 bc 8f 50 c0 3e d2 99 8a bd
       0.6964635 -0.018248573 0.3756146 -0.0676762
0000c0 44 ea 6b 3e 52 7e bf bd 6e 0f 8c be 92 ee 38 3f
       0.23038584 -0.093502656 -0.27355522 0.7223903
0000d0 fa d0 db 3d 47 39 0f 3f da fa 50 be 12 30 f9 3e
       0.107332185 0.55946773 -0.20408192 0.48669487
0000e0 22 1c 09 bd 88 fe a9 be 7d f5 31 3f 8c 83 20 bc
       -0.033474095 -0.33202004 0.6951521 -0.009796988
0000f0 5b 75 bc 3e d7 43 81 bd 32 cc 68 3e 2f b1 cb bd
       0.36808285 -0.063117675 0.22734144 -0.099459045
000100 23 d2 72 be 95 5c 34 3f 48 0f f5 3d 08 70 0f 3f
       -0.23712973 0.7045377 0.11965805 0.5603032
000110 9d 3e 6f be b8 75 fa 3e 48 0c 11 bd 4b b6 a7 be
       -0.23363729 0.48917937 -0.035412103 -0.32756266
000120 03 4a 31 3f 91 90 26 bc 4d 4a bb 3e ff 5e 6a bd
       0.6925356 -0.010166303 0.36580124 -0.0572195
000130 e7 c0 6f 3e 08 9d c8 bd e0 aa 71 be 25 39 33 3f
       0.2341343 -0.09795576 -0.2360034 0.7000907
000140 fa 87 f9 3d 6a 7b 0d 3f a6 cf 73 be 8c e6 fe 3e
       0.121841386 0.5526644 -0.2380968 0.49785268
000150 40 e0 02 bd a7 d4 a9 be 4b 6f 30 3f 06 45 44 bc
       -0.031952143 -0.33170053 0.6891982 -0.011979347
000160 22 cd bc 3e 20 06 77 bd aa ef 62 3e 5c bd ce bd
       0.36875254 -0.060308576 0.22161737 -0.10094711
000170 40 bc 7f be 54 9b 36 3f de 05 f3 3d b2 df 10 3f
       -0.24974155 0.7133076 0.118663535 0.5659133
000180 9a 16 6d be 3d 73 00 3f 8e 72 06 bd d9 2e a9 be
       -0.23153153 0.5017584 -0.03282409 -0.33043554
000190 fd af 2f 3f fa 47 3e bc 2a d2 ba 3e fe 79 6d bd
       0.6862791 -0.01161384 0.36488467 -0.05797767
0001a0 7c f9 66 3e 63 14 cb bd 16 f7 7c be c2 35 38 3f
       0.22556108 -0.09915998 -0.24703631 0.7195703
0001b0 3b f2 f4 3d 59 aa 0f 3f cc 65 68 be 08 84 ff 3e
       0.11960264 0.56119305 -0.22695082 0.4990542

107 f4 [8, 14]
000000 42 24 04 bd 38 63 ad be 6f 4d 2e 3f 71 a8 80 bc
       -0.03226114 -0.3386476 0.68086904 -0.01570532
000010 69 aa c1 3e 3b 57 82 bd 53 36 6c 3e 82 b2 b7 bd
       0.37825325 -0.06364294 0.23067598 -0.089695945
000020 05 a3 88 be da f9 37 3f d3 29 e7 3d 6b 5a 18 3f
       -0.26686874 0.7186562 0.11287274 0.59512967
000030 0a 52 73 be 36 c2 f7 3e 18 5a 05 bd 12 6f ad be
       -0.23761764 0.4839036 -0.032556623 -0.33873802
000040 c0 0f 2d 3f 44 a4 8d bc 5d 1f c1 3e f9 35 7b bd
       0.6760216 -0.017290242 0.3771924 -0.06133077
000050 7c a2 66 3e f4 b1 bd bd 9d bd 88 be 34 06 39 3f
       0.2252292 -0.092624575 -0.26707163 0.7227509
000060 3f 91 d3 3d ba d2 16 3f f0 aa 6c be 0f d1 f7 3e
       0.10330438 0.58915293 -0.23112082 0.48401687
000070 70 b8 0e bd 92 c6 ad be cd ab 30 3f b0 75 8a bc
       -0.034843862 -0.3394056 0.6901215 -0.01690182
000080 c9 48 bf 3e f5 15 87 bd 3c 58 77 3e ac 38 b4 bd
       0.37360218 -0.06595985 0.24154752 -0.08799872
000090 6e 5c 8d be 96 23 3b 3f 12 13 e2 3d ff e8 13 3f
       -0.2760958 0.73101175 0.110387936 0.577774
0000a0 9a 25 61 be 87 7b f0 3e 70 e0 15 bd 9e 7d ac be
       -0.21987 0.46969244 -0.036590993 -0.33689588
0000b0 9f 62 30 3f 22 65 93 bc 14 3e bc 3e ac 7c 85 bd
       0.68900484 -0.01799256 0.36766112 -0.0651792
0000c0 3d c2 6f 3e 03 e5 bc bd da 06 89 be fa bc 39 3f
       0.2341394 -0.09223368 -0.2676304 0.7255398
0000d0 31 d7 e1 3d 1e 8a 11 3f 32 c9 50 be a7 31 f2 3e
       0.11027373 0.56851375 -0.2038925 0.47303507
0000e0 20 32 0a bd 44 90 a9 be 49 f6 2f 3f 45 49 23 bc
       -0.03373921 -0.33117878 0.68735176 -0.009966199
0000f0 7a a9 b8 3e a3 53 77 bd 31 58 69 3e 7e 54 c9 bd
       0.360668 -0.060382497 0.22787549 -0.09830569
000100 5b 5a 6e be f0 24 35 3f aa 58 fc 3d cd 3a 12 3f
       -0.23276655 0.7075949 0.12321599 0.5712097
000110 ff 34 6f be e4 d7 f2 3e fe f9 11 bd ce 6a a7 be
       -0.2336006 0.47430336 -0.0356388 -0.32698673
000120 25 2e 2f 3f 18 c7 26 bc ec 85 b7 3e d0 08 5f bd
       0.68429786 -0.010179304 0.35844362 -0.054451764
000130 28 f5 6f 3e ca fe c6 bd 66 e2 6c be 5d ed 33 3f
       0.23433363 -0.09716566 -0.23133239 0.7028406
000140 aa 75 00 3e b0 50 10 3f 92 ff 72 be 86 a7 f7 3e
       0.12544885 0.5637312 -0.23730305 0.48369998
000150 ca 0b 03 bd ae 88 a9 be 0f 75 2e 3f 03 1e 48 bc
       -0.031993665 -0.3311209 0.6814737 -0.012214187
000160 11 19 b9 3e 45 12 6e bd 29 47 63 3e e8 37 cc bd
       0.36151937 -0.058122892 0.22195114 -0.09971601
000170 fb 47 7c be 28 89 37 3f bd e6 f9 3d 62 71 13 3f
       -0.24636833 0.7169366 0.12202213 0.57594883
000180 39 85 6b be 40 24 fb 3e 74 47 06 bd b8 24 a9 be
       -0.23000039 0.49051094 -0.032782987 -0.33035827
000190 88 a6 2d 3f 47 68 44 bc 31 fb b6 3e 9a 57 64 bd
       0.6783223 -0.011987752 0.3573852 -0.055747606
0001a0 14 6b 67 3e 66 5a c8 bd 3b d8 79 be b3 26 39 3f
       0.22599441 -0.09782867 -0.24398892 0.72324675
0001b0 a7 e7 fb 3d 00 19 12 3f 8f 1f 67 be 0e 12 fa 3e
       0.123000436 0.57069397 -0.22570632 0.488419

108 f4 [8, 14]
000000 53 f0 ff bc 06 f1 a9 be 2e 2d 30 3f a4 e9 7f bc
       -0.031242525 -0.331917 0.6881894 -0.015619669
000010 2e d2 c1 3e a5 cc 78 bd a4 94 67 3e 91 e1 b3 bd
       0.37855667 -0.06074204 0.22615296 -0.08783258
000020 a4 4e 88 be d1 f1 36 3f c3 20 e4 3d a8 3c 18 3f
       -0.26622498 0.7146273 0.11139061 0.59467554
000030 c4 8a 76 be de 8a f7 3e d8 55 02 bd 18 d0 a9 be
       -0.24076372 0.48348135 -0.03182015 -0.33166575
000040 17 e6 2e 3f 03 d2 8d bc ea e1 c1 3e 81 e0 6d bd
       0.6831984 -0.017312055 0.3786767 -0.05807543
000050 96 8d 62 3e a3 48 b9 bd 4e 93 88 be 19 fa 37 3f
       0.22124323 -0.090470575 -0.26674885 0.71865994
000060 4d 0d d0 3d b2 77 16 3f 54 13 70 be 90 2a f7 3e
       0.10158787 0.5877639 -0.23444873 0.4827466
000070 3c 91 08 bd 73 64 aa be e2 5e 32 3f d9 0b 8b bc
       -0.03334163 -0.33279762 0.6967603 -0.016973423
000080 e9 f7 bf 3e 47 69 80 bd 4d 14 72 3e bf e4 b1 bd
       0.37493828 -0.0627008 0.23640557 -0.08686208
000090 e2 26 8e be 9d ae 39 3f ed c1 e0 3d c6 ad 13 3f
       -0.2776404 0.72532064 0.109744884 0.5768703
0000a0 de 60 62 be 86 db f0 3e 08 70 0f bd 73 fa a8 be
       -0.22107264 0.47042483 -0.03501895 -0.33003578
0000b0 27 1f 32 3f 86 73 94 bc 28 b9 bd 3e 53 db 7d bd
       0.69578785 -0.018121492 0.37055326 -0.061976742
0000c0 ba bb 6a 3e a9 77 ba bd f4 fe 89 be d2 3c 38 3f
       0.22923175 -0.091048546 -0.26952326 0.71967804
0000d0 65 26 e0 3d 3e b4 11 3f 88 da 51 be a9 e2 f2 3e
       0.10944823 0.5691565 -0.2049352 0.47438553
0000e0 42 22 07 bd 65 1c a6 be 8d c1 31 3f b2 ef 23 bc
       -0.032991655 -0.32443538 0.6943596 -0.010005878
0000f0 b0 d2 b9 3e 86 b1 67 bd bc 30 65 3e 4b 1b c8 bd
       0.36293554 -0.056565784 0.22381872 -0.09770831
000100 34 e7 6d be f6 9d 33 3f dc 7c fc 3d e7 d3 11 3f
       -0.23232728 0.70162904 0.123285025 0.5696396
000110 60 3f 71 be 00 60 f4 3e e8 ab 0e bd 09 f1 a3 be
       -0.23559332 0.47729492 -0.03483191 -0.32019833
000120 41 f9 30 3f 65 e7 23 bc 7e 85 b8 3e 06 d3 4e bd
       0.6913033 -0.010003899 0.36039346 -0.050494216
000130 6a d2 6b 3e 49 b3 c5 bd e2 8a 6d be 3d 9e 32 3f
       0.23029485 -0.096533366 -0.23197511 0.697727
000140 d7 8a 00 3e 5c 20 10 3f a0 49 75 be 45 11 f9 3e
       0.12552963 0.56299376 -0.23953867 0.48645988
000150 81 4f fd bc a4 1f a6 be 92 fa 2f 3f 60 fb 46 bc
       -0.0309217 -0.32446015 0.68741715 -0.012144893
000160 94 33 ba 3e 3e bd 5d bd 31 14 5f 3e 3b ab cb bd
       0.36367476 -0.054135554 0.21785046 -0.09944769
000170 a4 43 7c be 0a 41 36 3f 12 9c f9 3d 4c 7f 13 3f
       -0.24635178 0.7119299 0.12187971 0.57616115
000180 1a de 6d be ea c6 fb 3e 72 ee 01 bd a0 bd a5 be
       -0.23229256 0.49175197 -0.03172154 -0.32371235
000190 ae 35 2f 3f 7e 9b 44 bc fe 0a b8 3e a0 75 54 bd
       0.68441284 -0.011999963 0.35945886 -0.05186999
0001a0 cd 4e 63 3e dd bc c7 bd 98 49 7a be 3d d7 37 3f
       0.22198029 -0.0975282 -0.24442136 0.718128
0001b0 e7 80 fb 3d 29 25 12 3f ba 3e 69 be 2c ae fa 3e
       0.122804455 0.5708795 -0.22777835 0.48961008

109 f4 [8, 14]
000000 6a 8a 0a bd 28 41 ab be fb 0d 31 3f 6b 3f 45 bc
       -0.03382341 -0.33448148 0.6916196 -0.012039046
000010 76 35 c1 3e ed ee 80 bd ea 70 71 3e ec ac b6 bd
       0.377361 -0.062955715 0.2357823 -0.08919701
000020 80 6c 87 be 2f 1f 38 3f 7c 44 e1 3d 72 91 17 3f
       -0.26449966 0.7192258 0.109993905 0.59206307
000030 f4 ac 75 be c8 b2 f9 3e aa bd 0a bd e0 0b ab be
       -0.23991758 0.48769212 -0.033872284 -0.33407497
000040 cf fa 2f 3f 70 70 5e bc 79 8e c0 3e fd 6b 78 bd
       0.6874208 -0.013576612 0.37608698 -0.06064986
000050 76 05 6c 3e 0b 53 bb bd 06 85 87 be dc 1e 39 3f
       0.23048958 -0.091466986 -0.26468676 0.7231271
000060 19 a4 cc 3d cb db 15 3f 76 1e 70 be 07 7a f9 3e
       0.09992237 0.585385 -0.2344912 0.48725912
000070 04 9d 14 bd 0a 69 ab be 7b 26 33 3f e0 4b 57 bc
       -0.036282554 -0.33478576 0.6998059 -0.013140649
000080 5b 34 be 3e 1d ab 84 bd 68 84 7d 3e e6 5a b3 bd
       0.3714932 -0.0647795 0.2475754 -0.08757572
000090 a4 9f 8d be 45 40 3b 3f 9b f5 db 3d 5e 2d 13 3f
       -0.2766086 0.7314494 0.10740205 0.574911
0000a0 a9 5a 63 be 44 7a f2 3e 9c 85 1a bd ec fb a9 be
       -0.22202553 0.47358906 -0.037725076 -0.33200014
0000b0 4e d8 32 3f 40 72 72 bc 84 bb bb 3e 6e 18 83 bd
       0.69861305 -0.014797747 0.366665 -0.06401144
0000c0 3b 16 76 3e fd 44 bb bd 95 aa 89 be d7 a0 39 3f
       0.24031918 -0.09144018 -0.26887956 0.7251105
0000d0 b1 18 da 3d 20 d6 10 3f be 24 53 be 23 1d f4 3e
       0.10649241 0.5657673 -0.20619485 0.4767848
0000e0 c4 05 11 bd 32 db a7 be 2f e2 32 3f ae c5 d5 bb
       -0.03540589 -0.3278442 0.6987638 -0.0065238094
0000f0 cd 00 b8 3e 5f 14 74 bd 25 9c 71 3e 09 39 c7 bd
       0.3593811 -0.05958974 0.2359472 -0.097276755
000100 8e cf 6e be 49 07 35 3f 77 8e f5 3d 52 35 11 3f
       -0.23321363 0.7071424 0.11990064 0.56721985
000110 c6 ec 6f be a2 56 f5 3e 0c e7 18 bd 40 a4 a5 be
       -0.23430166 0.47917658 -0.03732972 -0.32351875
000120 93 09 32 3f 6b 8c e0 bb 59 80 b6 3e 80 07 5d bd
       0.6954586 -0.0068526766 0.35644796 -0.05396223
000130 ca d9 78 3e 51 b3 c4 bd b7 10 6d be ad d1 33 3f
       0.2430183 -0.096045144 -0.23150907 0.70241815
000140 c6 02 f9 3d 2a 51 0f 3f 06 8e 74 be e4 25 fa 3e
       0.12158732 0.5598322 -0.23882303 0.48857033
000150 0e 59 09 bd 76 aa a7 be 1d d6 30 3f 20 7f 12 bc
       -0.033532195 -0.3274724 0.6907671 -0.008941442
000160 94 c8 b7 3e e1 3b 6a bd b5 86 6b 3e 0a 05 cb bd
       0.35895216 -0.05718601 0.23000605 -0.099130705
000170 e2 28 7d be c3 22 37 3f 82 bb f1 3d 1e d6 12 3f
       -0.24722627 0.7153742 0.118033424 0.57357967
000180 44 8f 6d be fb 94 fc 3e 5a b0 0c bd 1a e9 a6 be
       -0.23199183 0.49332413 -0.03434787 -0.32599717
000190 fa 1e 30 3f 48 dd 0f bc f8 dd b5 3e d7 5c 60 bd
       0.68797266 -0.008780785 0.3552091 -0.05477604
0001a0 8e d7 6f 3e 56 62 c7 bd 2a 08 7b be d5 91 38 3f
       0.23422071 -0.09735553 -0.24514833 0.7209752
0001b0 f4 ad f3 3d 1e 9a 11 3f c9 42 69 be 30 01 fb 3e
       0.11898413 0.5687579 -0.22779383 0.49024343

11 f4 [8, 14]
000000 ce b4 03 bd 6c a5 ad be f8 da 30 3f f8 fd 79 bc
       -0.03215485 -0.3391527 0.6908412 -0.015258305
000010 93 a4 c2 3e e2 f5 82 bd 4d be 6c 3e 8a 10 b1 bd
       0.38016185 -0.06394555 0.23119469 -0.08645733
000020 62 60 89 be 35 1c 37 3f 4a 6e d6 3d 37 b6 16 3f
       -0.26831347 0.71527416 0.10470255 0.5887179
000030 10 5f 78 be 72 9b fc 3e 58 bb 05 bd c9 79 ad be
       -0.24255013 0.49337345 -0.032649368 -0.33881977
000040 59 ba 2f 3f 99 15 88 bc 28 3b c2 3e 7a 77 7c bd
       0.6864372 -0.016611861 0.37935758 -0.06163738
000050 6e 3e 67 3e 36 7e b7 bd c9 3c 89 be 86 fe 37 3f
       0.22582409 -0.0895962 -0.26804188 0.71872747
000060 9e 8a c2 3d 85 47 15 3f 24 1a 72 be c9 02 fc 3e
       0.094990954 0.58312255 -0.23642784 0.49220875
000070 9e 9b 0c bd a2 d1 ad be 1c 46 33 3f 7e 53 83 bc
       -0.034328096 -0.33949 0.70028853 -0.016031023
000080 28 8c c0 3e b9 cf 85 bd 56 da 78 3e c4 31 ae bd
       0.3760693 -0.065337606 0.24302039 -0.08505586
000090 92 e1 8d be 02 23 3a 3f 2f 4c d0 3d 17 d6 12 3f
       -0.2771116 0.7270967 0.10170781 0.57357925
0000a0 c2 9f 66 be 26 4c f4 3e 46 f1 12 bd 06 c8 ac be
       -0.2252188 0.47714347 -0.035874628 -0.33746356
0000b0 49 d7 32 3f 43 d4 8e bc 76 d5 bd 3e a9 aa 84 bd
       0.6985975 -0.017435199 0.3707692 -0.06477863
0000c0 d0 d8 70 3e 72 61 b6 bd 40 30 8a be 97 ae 38 3f
       0.23520207 -0.08905305 -0.26989937 0.721414
0000d0 75 34 cf 3d 36 8f 10 3f a6 8b 55 be 4e e7 f5 3e
       0.10117427 0.5646852 -0.20854053 0.48028034
0000e0 56 27 0b bd f6 2e aa be d4 61 32 3f 1e 3c 1c bc
       -0.03397306 -0.33238953 0.69680524 -0.009535817
0000f0 5e c1 ba 3e 71 8b 78 bd e3 1e 6b 3e c5 41 c5 bd
       0.36475652 -0.060679857 0.22961001 -0.09631685
000100 d6 67 6f be a1 f7 33 3f 00 f0 ec 3d 99 d1 10 3f
       -0.23379454 0.70299727 0.11569214 0.5656982
000110 9e 43 72 be 78 fc f7 3e aa 0b 13 bd 2b 0b a8 be
       -0.23658606 0.48434806 -0.035899796 -0.3282102
000120 e4 9d 31 3f 32 b5 1c bc 11 61 b9 3e aa 72 60 bd
       0.69381547 -0.009564685 0.36206868 -0.054796852
000130 4d cd 72 3e 71 8d c2 bd 76 fd 6d be 55 c1 32 3f
       0.23711129 -0.09499634 -0.23241219 0.6982625
000140 73 97 f1 3d e2 ef 0e 3f fc 92 76 be 30 ad fc 3e
       0.11796465 0.5583478 -0.24079508 0.49350882
000150 2a 08 04 bd 14 4d a9 be c9 12 31 3f 1c 1d 39 bc
       -0.03223435 -0.33066618 0.6916929 -0.011298444
000160 18 9a ba 3e 07 b2 6f bd ff 61 65 3e 36 f5 c8 bd
       0.3644569 -0.05851939 0.22400664 -0.09812395
000170 b4 2a 7d be 1e 15 36 3f 0c 10 eb 3d 4b 64 12 3f
       -0.24723321 0.7112597 0.1147767 0.57184285
000180 24 c3 6f be 9f 54 ff 3e 7c 78 07 bd 44 c7 a8 be
       -0.23414284 0.49869248 -0.033073887 -0.32964528
000190 ce 4f 30 3f 19 2a 33 bc 80 85 b8 3e 24 41 65 bd
       0.6887177 -0.01093533 0.36039352 -0.055970326
0001a0 b9 5a 69 3e de 01 c5 bd 94 5a 7a be 29 9c 37 3f
       0.22788514 -0.09619497 -0.24448615 0.71722656
0001b0 0b e0 ec 3d 26 0c 11 3f c3 6a 6b be 2e e0 fd 3e
       0.1156617 0.5665916 -0.22989945 0.49585098

110 f4 [8, 14]
000000 0c 31 02 bd 4c b4 af be fd bc 2e 3f be 89 85 bc
       -0.031785056 -0.34317243 0.68257123 -0.016301032
000010 37 44 c5 3e 4c 81 83 bd b6 3f 6a 3e de 79 b1 bd
       0.38528606 -0.06421146 0.22875866 -0.086658224
000020 1e b3 8e be 2b 94 37 3f 6f 86 e3 3d 9d 33 16 3f
       -0.2787103 0.7171046 0.111096255 0.58672506
000030 34 a8 6c be b5 a3 fd 3e 5e b6 04 bd 20 7c af be
       -0.2311104 0.4953896 -0.03240048 -0.34274387
000040 bc 97 2d 3f 2f 90 90 bc 0d 05 c5 3e df 63 7c bd
       0.67809653 -0.017646877 0.38480416 -0.061618682
000050 ea 6e 64 3e cd d9 b6 bd 8d 80 8e be 3c 51 38 3f
       0.22307935 -0.08928261 -0.2783245 0.71998954
000060 36 d6 cf 3d 89 f2 14 3f eb ae 66 be ea 96 fd 3e
       0.10148279 0.5818258 -0.22527663 0.495292
000070 12 e5 0b bd f0 02 b0 be 5f 08 31 3f bf 83 8a bc
       -0.034154005 -0.3437724 0.691534 -0.016908525
000080 f0 da c2 3e eb 8a 85 bd ca e5 73 3e dc 3a b0 bd
       0.3805766 -0.06520637 0.23818126 -0.086049765
000090 c4 c3 93 be ef 3d 3a 3f 70 2d de 3d 5f 4a 12 3f
       -0.28860295 0.72750753 0.1084851 0.5714473
0000a0 96 8e 5a be 84 a1 f5 3e e6 a1 12 bd b3 ce ae be
       -0.21343455 0.4797479 -0.03579893 -0.34142074
0000b0 60 d7 30 3f ec ce 96 bc eb c3 c0 3e cb d2 85 bd
       0.69078636 -0.018409215 0.37649474 -0.06534346
0000c0 ea da 6c 3e 76 ec b8 bd 89 4a 8f be 94 c0 38 3f
       0.23130384 -0.09029476 -0.27986553 0.7216885
0000d0 38 3e de 3d 63 18 10 3f 23 37 4b be 94 b0 f8 3e
       0.10851711 0.5628721 -0.19845252 0.48572218
0000e0 ee 1c 09 bd 2e 0a ac be d0 a2 30 3f 24 99 1f bc
       -0.033474855 -0.33601516 0.6899843 -0.009741101
0000f0 69 87 bc 3e e8 62 79 bd e7 c4 69 3e 97 05 c3 bd
       0.3682206 -0.06088534 0.22829019 -0.095225506
000100 fb ac 78 be 35 e3 33 3f bf b8 f8 3d c6 43 10 3f
       -0.24284737 0.70268565 0.121446125 0.56353414
000110 9e 1f 6a be 66 65 fa 3e 06 9c 0f bd a0 ce a9 be
       -0.22863623 0.48905486 -0.035060905 -0.33165455
000120 64 e2 2f 3f 7d e5 22 bc a8 74 bb 3e 81 d2 61 bd
       0.6870482 -0.00994241 0.3661244 -0.055132393
000130 d3 22 70 3e 84 e8 c0 bd e6 0b 78 be bf d3 32 3f
       0.23450784 -0.09419349 -0.24223289 0.6985435
000140 ac 50 fd 3d 04 7f 0e 3f 67 4d 6e be 7b bd fe 3e
       0.123689026 0.5566256 -0.23271714 0.49753937
000150 16 98 01 bd 8e df ab be 04 ef 2e 3f 69 41 43 bc
       -0.03163918 -0.33568996 0.6833346 -0.01191745
000160 bc 44 bd 3e 6b 6a 6e bd e8 7f 63 3e 54 f8 c7 bd
       0.36966503 -0.058206957 0.22216761 -0.09764162
000170 65 1c 83 be 64 3f 36 3f 36 8e f7 3d 85 08 12 3f
       -0.256076 0.71190476 0.120876715 0.5704425
000180 09 14 67 be f4 ac 00 3f b8 5a 05 bd 84 6e ab be
       -0.22566237 0.50263906 -0.03255722 -0.33482754
000190 1c 25 2e 3f 1c 6d 40 bc bb 2b bb 3e a8 b9 64 bd
       0.68025374 -0.011744764 0.365568 -0.055841118
0001a0 f8 ed 67 3e a1 56 c4 bd 05 e7 81 be 2c d4 37 3f
       0.22649372 -0.09586836 -0.25371566 0.71808124
0001b0 2f cd f9 3d c5 b4 10 3f d1 7f 62 be 23 20 00 3f
       0.12197339 0.5652583 -0.2211907 0.50049037

111 f4 [8, 14]
000000 9e 5c 03 bd dc 3d ab be 78 48 2e 3f 04 0e 7f bc
       -0.03207075 -0.33445632 0.6807933 -0.015567306
000010 ab b6 c1 3e ab 34 80 bd 07 ec 6a 3e 98 7b ac bd
       0.37834677 -0.062600456 0.229416 -0.08422011
000020 ba fc 8a be c0 5f 38 3f 6a db e5 3d 16 10 18 3f
       -0.2714594 0.720211 0.112234905 0.59399545
000030 e8 33 71 be 64 7f fc 3e d8 a0 04 bd 9a 32 ab be
       -0.23554957 0.4931594 -0.032379955 -0.33437043
000040 d3 14 2d 3f 6d af 8a bc 62 05 c1 3e 9c 7b 77 bd
       0.676099 -0.016929353 0.3769942 -0.060420617
000050 93 19 65 3e 7c 79 b2 bd 31 c8 8a be ea 30 39 3f
       0.22373037 -0.087145776 -0.2710586 0.7234026
000060 27 87 d2 3d 25 7e 16 3f fe 9f 6b be a6 be fc 3e
       0.102796845 0.5878623 -0.23010251 0.49364203
000070 62 dc 0d bd b2 08 ac be fc ce 30 3f 56 63 84 bc
       -0.034634 -0.33600384 0.69065833 -0.016160648
000080 8e 0e bf 3e 50 d0 85 bd 2b 41 76 3e 2a eb ab bd
       0.37315792 -0.06533873 0.24048297 -0.08394463
000090 f6 40 91 be 17 76 3b 3f 06 53 df 3d d7 f0 13 3f
       -0.28369874 0.73227066 0.10904507 0.5778937
0000a0 3b 5c 5e be e8 2c f5 3e a0 be 14 bd 00 8e aa be
       -0.2171487 0.47885823 -0.036314607 -0.33311462
0000b0 c7 80 30 3f 12 a0 91 bc 99 54 bc 3e c3 0e 84 bd
       0.689465 -0.017776523 0.36783293 -0.06448128
0000c0 b9 a5 6e 3e da 56 b3 bd fb dc 8c be ce c6 39 3f
       0.23305406 -0.087568 -0.27512345 0.72568977
0000d0 76 69 df 3d b9 e8 11 3f 39 f5 4d be fe a8 f7 3e
       0.10908787 0.5699573 -0.20113076 0.48371118
0000e0 f4 e5 08 bd 6c f0 a7 be d1 ff 2f 3f d6 08 17 bc
       -0.033422425 -0.32800615 0.6874972 -0.009218415
0000f0 2b 88 b8 3e 32 bc 74 bd 44 94 6a 3e ed fa bd bd
       0.36041388 -0.05974979 0.22908121 -0.09276376
000100 bb c0 74 be cc 4e 35 3f dc 90 fb 3d d0 04 12 3f
       -0.23901646 0.7082336 0.12283489 0.57038593
000110 ac 46 6e be 70 05 f9 3e f2 cc 0f bd ce d8 a5 be
       -0.23269147 0.4863696 -0.03510756 -0.3239197
000120 63 41 2f 3f 5f 88 19 bc 0a 38 b7 3e f5 43 5e bd
       0.6845915 -0.009370892 0.35784942 -0.054264028
000130 6c a1 71 3e d3 83 bb bd f3 f8 73 be 09 1a 34 3f
       0.23596734 -0.09156003 -0.23825435 0.70352226
000140 12 da ff 3d 91 1a 10 3f e7 fa 72 be 33 c5 fd 3e
       0.124927655 0.5629054 -0.23728524 0.49564514
000150 60 b2 00 bd 59 cc a7 be 78 48 2e 3f 38 d2 35 bc
       -0.03142011 -0.32773092 0.6807933 -0.011097483
000160 58 65 b8 3e f5 88 6b bd 58 ac 64 3e ec 12 c3 bd
       0.3601482 -0.05750366 0.22331369 -0.095250934
000170 0d 47 81 be 3c 6b 37 3f a7 7b f8 3d 99 43 13 3f
       -0.2524952 0.71648 0.1213296 0.5752502
000180 5a 06 6c be d5 0b 00 3f 78 0b 04 bd 54 5a a7 be
       -0.23049298 0.50018054 -0.0322375 -0.32686102
000190 3f 7b 2d 3f e8 9e 32 bc 45 3a b6 3e 07 6e 61 bd
       0.67766184 -0.010902144 0.3559133 -0.05503657
0001a0 73 a0 68 3e ef 38 bf bd a0 01 80 be 28 fc 38 3f
       0.22717457 -0.09337031 -0.2500124 0.7225976
0001b0 9f 67 fa 3d 93 e1 11 3f 06 98 67 be f0 0f ff 3e
       0.122267954 0.56984824 -0.22616586 0.49816847
